handwrittenDigitRecognition/result/LeNetModel_1.pth (torch, 250686 bytes, 10 tensors)

net.1.weight f4 [6, 1, 5, 5]
0	0x3c03181d	0.0080013545
1	0x3e16a624	0.14711815
2	0xbe5540e1	-0.2082553
3	0xbe94429f	-0.28957078
4	0xbd84aa80	-0.06477833
5	0xbe278a7e	-0.16361424
6	0x3e3ad97d	0.18247028
7	0x3e67a69d	0.22622152
8	0xbf132135	-0.57472545
9	0xbee34d1a	-0.4439476
10	0xbdbd0b54	-0.09230676
11	0x3d8c51a6	0.06851511
12	0x3e4be544	0.19911677
13	0x3e81387b	0.25238404
14	0x3da924a0	0.08258939
15	0x3cd096ae	0.025462475
16	0xbe1659f7	-0.14682756
17	0x3eaacf88	0.3336146
18	0x3eaad0a5	0.33362308
19	0x3e9c72aa	0.30556232
20	0x3d0f44ae	0.034977607
21	0x3d836c73	0.064171694
22	0xbe2a7f41	-0.16650106
23	0xbe0310c8	-0.1279937
24	0xbcd94d7a	-0.026526202
25	0x3e5af54e	0.21382639
26	0x3e7d0fd1	0.24713065
27	0x3ec20f20	0.37902164
28	0x3e7300f5	0.23730834
29	0x3e524107	0.20532618
30	0x3e3eda6f	0.18638013
31	0x3e09adac	0.13445157
32	0x3bee902b	0.0072803698
33	0x3ea2c277	0.3178899
34	0x3deb9575	0.11503116
35	0xbdd449a4	-0.10365608
36	0xbd9fc191	-0.07800592
37	0xbe17ca44	-0.14823252
38	0xbd3a9372	-0.04555077
39	0x3d377874	0.044792607
40	0xbed87f13	-0.4228445
41	0xbeb7538b	-0.35805926
42	0xbeb03930	-0.3441863
43	0xbea5bdfb	-0.32371506
44	0x3c45469a	0.0120407585
45	0xbd8d4ed4	-0.06899801
46	0xbda5ce57	-0.08095997
47	0xbdfead3f	-0.12435388
48	0x3b5a9b3a	0.0033356682
49	0xbc39cd95	-0.0113405185
50	0xbd9471b0	-0.07248247
51	0x3d103cc6	0.035214208
52	0x3e32f90e	0.1747782
53	0xbe85d9e8	-0.26142812
54	0xbec14f85	-0.3775598
55	0xbd691d40	-0.05691266
56	0x3e24dc35	0.16099627
57	0xbc9475c8	-0.018122569
58	0x3de3f942	0.111315265
59	0xbeb161f5	-0.34645048
60	0x3d309c90	0.04311806
61	0x3da1bb47	0.078970484
62	0x3c9574e8	0.018244222
63	0xbcd89790	-0.026439458
64	0xbe02c083	-0.1276875
65	0xbbc1d20a	-0.005914931
66	0x3cf89038	0.030342206
67	0x3e801d9f	0.250226
68	0x3e673ae2	0.22581056
69	0xbea4fc85	-0.32223907
70	0x3d402710	0.046912253
71	0xbddc12d2	-0.10745777
72	0xbc7a957d	-0.01529443
73	0x3e9bcde2	0.30430514
74	0xbbcda2ff	-0.006275534
75	0x3d42b2c7	0.047533777
76	0x3d7ce49e	0.061741464
77	0x3da53821	0.08067346
78	0x3d65308b	0.055954497
79	0x3db2e5a9	0.087352104
80	0x3e004e0e	0.12529776
81	0x3dcb41b6	0.09924643
82	0x3e057df0	0.13036323
83	0x3c8f0e76	0.01746295
84	0x3dc2903e	0.09500168
85	0xbcd2a1be	-0.02571189
86	0x3e01c6ba	0.12673464
87	0x3c96b91c	0.018398814
88	0xbe3eff8b	-0.1865217
89	0xbd8d6f3f	-0.06905984
90	0x3e2d5ff3	0.16931133
91	0x3e81e480	0.25369644
92	0xbc824be9	-0.015905337
93	0x3d37a1db	0.04483209
94	0x3c9ab442	0.018884782
95	0x3e38fb7f	0.18064688
96	0x3d93d632	0.07218589
97	0xbdc3d224	-0.095615655
98	0xbe853cb1	-0.26022866
99	0xbde8d80e	-0.11369334
100	0xbe680763	-0.22659068
101	0xbe3205d3	-0.17385034
102	0xbd036a36	-0.032083713
103	0xbe1baf54	-0.15203601
104	0x3c3f864e	0.011689736
105	0xbb5ff1d9	-0.0034171252
106	0xbec36e56	-0.38170117
107	0xbf1e05d4	-0.61727643
108	0xbf034ed1	-0.5129214
109	0xbe0fc4d4	-0.14039928
110	0xbc070790	-0.008241549
111	0x3dbf9db3	0.093562506
112	0xbc2356e0	-0.009969443
113	0x3cd7bfda	0.0263366
114	0x3c29ef2d	0.010371965
115	0xbd9195ea	-0.07108672
116	0xbc915b0e	-0.017743614
117	0xbad99cfb	-0.001660257
118	0x3eaa4c17	0.33261177
119	0x3dd8fb13	0.105947636
120	0x3e04196f	0.12900327
121	0xbdcb191b	-0.09916898
122	0x3eb68c58	0.3565395
123	0x3e84b5f8	0.2592008
124	0x3e16c8a2	0.14724973
125	0xbea80914	-0.32819426
126	0xbdc9a003	-0.09844973
127	0xbdb6981b	-0.089157306
128	0x3daa3d47	0.08312469
129	0xbc9c4039	-0.019073592
130	0xbde2e652	-0.11079086
131	0xbe8a8237	-0.2705247
132	0xbe40f27f	-0.18842505
133	0xbde1f93d	-0.110338666
134	0xbdea585d	-0.11442635
135	0xbc5c55da	-0.013448203
136	0xbca7921b	-0.02045541
137	0xbe14bc7a	-0.14525023
138	0xbdb73906	-0.08946423
139	0xbe44c8d5	-0.19217236
140	0x3c9efc1d	0.019407326
141	0xbad2b55c	-0.0016075778
142	0xbd7f7635	-0.06236859
143	0xbe183050	-0.1486218
144	0xbdd01fc9	-0.101623125
145	0x3dce5bec	0.100761265
146	0x3dc1029a	0.09424324
147	0xbc18f324	-0.009335313
148	0xbe0d4721	-0.13796665
149	0xbeafa123	-0.34302625

net.1.bias f4 [6]
0	0xbe817b81	-0.25289539
1	0xbe0d3ce0	-0.13792753
2	0xbe3e168a	-0.18563285
3	0xbf08781b	-0.53308266
4	0xbe8d18ed	-0.2755808
5	0xbe806836	-0.25079507

net.4.weight f4 [16, 6, 5, 5]
0	0xbe6e28ca	-0.23257747
1	0xbdfbfed3	-0.12304463
2	0xbcf7d6b5	-0.030253747
3	0x3e526339	0.20545663
4	0x3e096d39	0.13420571
5	0x3e558ccd	0.20854492
6	0x3d842814	0.06452957
7	0x3d6da99c	0.05802308
8	0x3df66be6	0.12032299
9	0xbdfc4687	-0.123181395
10	0x3da84082	0.08215429
11	0x3e62eecd	0.22161408
12	0xbdd396f7	-0.10331529
13	0xbe78c757	-0.24294792
14	0xbe8015f3	-0.25016746
15	0xbefdd658	-0.49577594
16	0x3e9b277e	0.30303568
17	0x3eb0b2e2	0.34511477
18	0x3eaf832c	0.34279764
19	0x3c8c4651	0.017123373
20	0xbd3b54b0	-0.04573506
21	0x3c7044c1	0.01466483
22	0xbd77e687	-0.060522582
23	0x3eab6d9f	0.33482072
24	0xbc941f0c	-0.01808121
25	0x3e50246f	0.20326398
26	0xbc11f25f	-0.008907883
27	0xbd5448ab	-0.051827114
28	0xbc82b8d3	-0.015957272
29	0xbe8bbe88	-0.272938
30	0x3de633fc	0.11240384
31	0xbdd5933e	-0.10428475
32	0x3e37cefe	0.17950055
33	0x3d55aee5	0.052168746
34	0x3e2b109f	0.16705559
35	0xbe400e47	-0.18755446
36	0xbe07349c	-0.13203663
37	0x3d55fa50	0.05224067
38	0xbd01fee8	-0.03173724
39	0x3e1693fc	0.14704889
40	0x3e42fe02	0.19042209
41	0x3e8bc3e8	0.27297902
42	0xbc768185	-0.015045528
43	0xbf07009e	-0.52735317
44	0xbeab2910	-0.33429766
45	0xbe5e832e	-0.21729729
46	0x3cf4a932	0.029865835
47	0x3d5fbb65	0.054622073
48	0xbe5950be	-0.21222207
49	0xbba31687	-0.0049770507
50	0xbe8a7ea5	-0.27049747
51	0xbe00fcfd	-0.12596507
52	0xbc3793c8	-0.011204667
53	0x3d18cb8f	0.037303504
54	0x3863ef91	5.434413e-05
55	0xbde2ff05	-0.11083797
56	0x3d56e0f4	0.052460626
57	0xbd92334e	-0.07138692
58	0xbda7b6c8	-0.0818916
59	0xbcac785d	-0.021053487
60	0xbdd32d5e	-0.103113875
61	0x3e2502b1	0.16114308
62	0x3dd6df53	0.104918145
63	0xbda4a368	-0.0803898
64	0xbe60737e	-0.21919057
65	0xbe97fd25	-0.2968532
66	0x3db93f94	0.0904533
67	0x3ea9df3d	0.3317813
68	0x3e645f5e	0.22302005
69	0xbdbcea9c	-0.09224436
70	0x3c00742e	0.007840199
71	0x3d9241cf	0.07141458
72	0x3e026ae1	0.12736084
73	0x3e6bce8b	0.23028009
74	0xbb1d67ab	-0.002401809
75	0xbe07fa74	-0.13279134
76	0xbe65168b	-0.2237188
77	0xbeda462e	-0.42631668
78	0xbea11645	-0.31462303
79	0xbc71ac45	-0.014750545
80	0xbed04a9a	-0.40681916
81	0xbea06aa7	-0.3133137
82	0xbeb3f3a6	-0.35146827
83	0xbea39d93	-0.31956157
84	0xbe8cda58	-0.27510333
85	0xbe4676b5	-0.1938122
86	0xbe8d7082	-0.276249
87	0xbe72172d	-0.23641653
88	0xbe675193	-0.22589712
89	0xbe603ca0	-0.21898127
90	0xbe8941bc	-0.26807964
91	0xbe887270	-0.2664981
92	0xbe3453aa	-0.1761004
93	0xbd6d9300	-0.05800152
94	0xbe5c3872	-0.21505907
95	0xbee3e17b	-0.44507965
96	0xbf1384a5	-0.57624274
97	0xbe01e4e5	-0.12684973
98	0xbe06225f	-0.13099049
99	0xbd125c65	-0.035732646
100	0xbe07312e	-0.13202354
101	0xbde05f37	-0.10955661
102	0x3dd1bd5a	0.10241194
103	0x3c030e72	0.0079990495
104	0x3d38a232	0.045076557
105	0x3e93bbd6	0.28854245
106	0x3e1c6a40	0.15274906
107	0x3d4864e1	0.04892433
108	0x3d479fcc	0.04873638
109	0x3d5cd502	0.053914078
110	0x3e0430d9	0.12909259
111	0x3e3cc7a1	0.18435527
112	0x3e6a7912	0.22897747
113	0xbd8bbb76	-0.06822865
114	0xbe46fece	-0.19433138
115	0xbf122186	-0.570824
116	0xbe902862	-0.2815581
117	0x3db03f85	0.086058654
118	0xbd148669	-0.036260996
119	0x3dc6163e	0.09672211
120	0xbe878cb1	-0.26474527
121	0xbe21c7c7	-0.15798865
122	0xbea75d6d	-0.32688466
123	0xbe7ebb0f	-0.24876045
124	0xbe2c062a	-0.16799226
125	0xbdc46ed1	-0.09591449
126	0x3e2471ef	0.16059087
127	0x3d22b6dc	0.03972517
128	0xbe09cbf7	-0.13456713
129	0xbd8902dd	-0.06689999
130	0x3998f7dd	0.00029176372
131	0x3e6dce30	0.23223186
132	0x3d9657a9	0.073409386
133	0xbe1ac723	-0.15115027
134	0xbddf3dc0	-0.1090045
135	0xbd205558	-0.03914389
136	0xbcd7e6f4	-0.026355244
137	0x3e0523b1	0.13001896
138	0x3e7c0a20	0.24613237
139	0x3d4c5e08	0.049894363
140	0xbc838868	-0.016056255
141	0xbdae61f4	-0.08514777
142	0xbe357786	-0.17721376
143	0x3d54e42f	0.051975425
144	0x3d8bd8ef	0.06828486
145	0x3d8a047b	0.06739136
146	0x3bd22e05	0.0064141774
147	0xbeb0f826	-0.34564322
148	0xbd73c49c	-0.059513673
149	0xbdd79372	-0.1052617
150	0xbda6ba1f	-0.081409685
151	0xbe49322b	-0.19648044
152	0x3de49e81	0.11163045
153	0x3e377688	0.1791631
154	0xbe1db084	-0.15399367
155	0x3d057e1c	0.03259097
156	0xbeb5c87c	-0.3550452
157	0xbf33d4cc	-0.7024658
158	0xbd8c47f2	-0.0684966
159	0xbe8c9e04	-0.27464306
160	0x3d8d41d8	0.06897324
161	0xbd104085	-0.03521778
162	0xbce2fbd5	-0.027707973
163	0x3e59cb23	0.21268897
164	0x3dd86502	0.10566141
165	0x3e1d856c	0.15382928
166	0x3d4de72d	0.050269295
167	0x3cccea26	0.025013994
168	0xbd825e0c	-0.06365594
169	0xbe4ac62e	-0.19802162
170	0x3dc61454	0.09671846
171	0x3e838acf	0.2569184
172	0x3e33386d	0.17501993
173	0xbe3b4466	-0.1828781
174	0xbe9fd731	-0.31218866
175	0x3ed40341	0.41408733
176	0x3d7bb088	0.06144765
177	0xbe402824	-0.18765312
178	0xbda212dc	-0.079137534
179	0x3e10301c	0.14080852
180	0x3e92f65b	0.2870358
181	0xbd6099d7	-0.054834213
182	0x3dfedbf7	0.12444299
183	0x3e6e98d9	0.23300494
184	0x3ea2015c	0.31641662
185	0xbf2af0f1	-0.667739
186	0xbed1c8ed	-0.40973607
187	0xbed34d09	-0.4126971
188	0xbf038882	-0.5138017
189	0xbee7882b	-0.45221075
190	0x3e37e52f	0.1795852
191	0x3d7b7ebd	0.061400164
192	0xbdc2b15b	-0.09506484
193	0x3d046d6f	0.032330927
194	0x3e332d92	0.17497852
195	0xbd3f87fc	-0.046760544
196	0xbcf6a295	-0.030106822
197	0xbe30e0eb	-0.172733
198	0xbcc560b9	-0.024093973
199	0xbdcaec08	-0.09908301
200	0x3dacf519	0.08445186
201	0xbde6e385	-0.11273865
202	0xbdd86eca	-0.10568006
203	0xbdac6fb3	-0.084197424
204	0xbd994615	-0.0748407
205	0xbdf8015f	-0.121096365
206	0xbde748f3	-0.11293211
207	0xbf363462	-0.7117368
208	0xbf1add52	-0.6049396
209	0xbe7f46c0	-0.24929333
210	0xbdd6c2c6	-0.10486369
211	0xbd7b1562	-0.06129969
212	0xbea5e26d	-0.32399312
213	0xbedbcc5e	-0.42929357
214	0xbe7ebc78	-0.24876583
215	0xbd31e478	-0.043430775
216	0x3e9706b1	0.29497293
217	0x3d55a96d	0.05216353
218	0xbedfa534	-0.43680727
219	0x3ddbcf7f	0.10732936
220	0x3dffde80	0.124936104
221	0x3e89e85d	0.26935092
222	0x3d770004	0.06030275
223	0xbeceb17b	-0.40369782
224	0x3c24fca1	0.010069997
225	0x3d2a2633	0.041540336
226	0xbdb0ec12	-0.08638777
227	0xbe8c19f5	-0.27363554
228	0xbe421d2a	-0.18956438
229	0x3e0ef6d1	0.1396134
230	0xbe6fc061	-0.2341323
231	0xbf1edb26	-0.62053144
232	0xbf51a32f	-0.81889623
233	0xbef1df6f	-0.4724078
234	0xbdaacb2f	-0.083395354
235	0xbe41d808	-0.18930066
236	0xbe0c5908	-0.13705838
237	0xbe2048e7	-0.1565281
238	0xbec31497	-0.38101646
239	0xbc6c04ee	-0.014405472
240	0xbdfe6fc6	-0.12423663
241	0xbd9928bc	-0.074784726
242	0x3d4da91d	0.050210107
243	0xbdf579d6	-0.11986129
244	0xbdc26ba7	-0.09493189
245	0x3d9a51cc	0.07535133
246	0xbdbd3e8e	-0.09240447
247	0xbd94c7ec	-0.072646946
248	0xbd9b6e0d	-0.0758935
249	0xbe1f96b6	-0.15584835
250	0xbe904ef2	-0.2818523
251	0xbd3269ca	-0.04355792
252	0x3eb6433f	0.3559818
253	0x3ebb9206	0.36634845
254	0xbcc71bcb	-0.024305245
255	0x3e10a473	0.14125232

net.4.bias f4 [16]
0	0xbd8f5c99	-0.070000835
1	0xbdfc4c45	-0.12319235
2	0x3deb525a	0.11490317
3	0x3d50c28f	0.050966796
4	0xbc192cb1	-0.009349034
5	0x3def8ff3	0.11697378
6	0x3d411a72	0.04714436
7	0xbd690b17	-0.05689534
8	0xbd8f2c63	-0.06990888
9	0xbd2a7681	-0.04161692
10	0xbd23ff2e	-0.04003828
11	0xbe0e832d	-0.13917227
12	0x3cbc7fab	0.023010096
13	0xbd704450	-0.058658898
14	0x3d08d49b	0.03340588
15	0xbc302a99	-0.010752344

net.8.weight f4 [120, 400]
0	0x3e93103f	0.28723332
1	0x3e7d3ff4	0.24731427
2	0xbe5273b8	-0.20551956
3	0x3dd9b74b	0.106306635
4	0x3b507a32	0.0031811115
5	0x3c5a1f00	0.013313055
6	0xbc806c44	-0.015676625
7	0xbe038a34	-0.12845689
8	0x3e4af857	0.19821297
9	0xbe4b5088	-0.19854939
10	0xbe248b85	-0.16068847
11	0xbddeb597	-0.10874479
12	0xbd1d2ca6	-0.03837266
13	0x3d0ecf57	0.034865703
14	0x3d5beca9	0.053692494
15	0xbc8a82e9	-0.016908126
16	0xbd4a981a	-0.04946146
17	0x3def2382	0.116766945
18	0x3de0fd5a	0.10985823
19	0xbdb41f31	-0.08795012
20	0xbdf5e886	-0.12007241
21	0x3c83d6a7	0.016093565
22	0xbdc92039	-0.09820599
23	0xbd2a1197	-0.04152068
24	0x3bffdd0a	0.0078083323
25	0x3da9ea62	0.08296658
26	0x3ea06362	0.31325823
27	0x3e16be88	0.1472112
28	0x3d7350ae	0.059403114
29	0xbc1356d8	-0.008992873
30	0x3d2c80ef	0.04211515
31	0xbc94a706	-0.01814605
32	0xbeea6a20	-0.45784092
33	0xbe4ef1d1	-0.20209433
34	0xbe2a5d8d	-0.1663725
35	0x3c8c685e	0.01713961
36	0xbec5cabb	-0.38631234
37	0xbd51c691	-0.05121476
38	0xbe5b9194	-0.21442252
39	0xbe05ad23	-0.13054328
40	0x3dc74018	0.09729022
41	0x3caca953	0.021076834
42	0x3dbb77a2	0.091536775
43	0x3ea36608	0.3191378
44	0x3daaa956	0.083330795
45	0x3c1ca3d1	0.009560541
46	0xbc89714b	-0.016777655
47	0xbd091bbe	-0.033473723
48	0xbecb766f	-0.39738795
49	0xbe6d78ab	-0.23190562
50	0x39ffae13	0.00048767086
51	0xbd451b13	-0.048121523
52	0x3e2ae30e	0.16688177
53	0x3e8360d5	0.25659814
54	0x3d28fbb2	0.04125566
55	0x3dccf66f	0.10007941
56	0x3ddd5008	0.108062804
57	0x3bb3379c	0.0054692756
58	0x3e35649a	0.17714158
59	0x3c53b00d	0.012920392
60	0x3e2aa1be	0.16663262
61	0xbd9a81d6	-0.075442955
62	0xbe414c20	-0.18876696
63	0x3e2f3330	0.1710937
64	0xbcc0a70b	-0.023517152
65	0x3d62867b	0.05530403
66	0xbe6b8830	-0.2300117
67	0xbdc201e6	-0.09473018
68	0x3e325544	0.17415339
69	0xbe42ce51	-0.19024016
70	0x3d639598	0.055562586
71	0xbc665e72	-0.014060603
72	0x3ce2361a	0.027613688
73	0xbd820e2e	-0.06350361
74	0xbdc3b0ec	-0.095552295
75	0xbd9f0e23	-0.07766368
76	0xbdd2df94	-0.102965504
77	0xbe858f9d	-0.2608613
78	0xbe3a8101	-0.18213274
79	0xbdb54c98	-0.088525
80	0x3e678f68	0.22613299
81	0x3e88fd37	0.26755688
82	0x3b03b791	0.0020098428
83	0xbd7f6cb5	-0.06235953
84	0x3e17cdee	0.1482465
85	0x3ecfeeba	0.4061182
86	0x3d9f08c0	0.07765341
87	0xbe4f4954	-0.20242816
88	0xbdcfe8a0	-0.101517916
89	0x3e6504d4	0.22365123
90	0x3e475fcf	0.19470142
91	0xbd0c9f3b	-0.03433154
92	0xbdd1a53f	-0.10236596
93	0xbb149e94	-0.0022677528
94	0x3e4e98fa	0.20175543
95	0xbc398dfa	-0.011325354
96	0xbc37dfb2	-0.011222767
97	0xbd1f726a	-0.038927473
98	0x3d8fd0d0	0.0702225
99	0x3eb5f690	0.35539675
100	0x3e65777e	0.22408864
101	0x3a6ce1fa	0.00090363587
102	0xbc9e27c0	-0.019306064
103	0xbe154bcf	-0.145797
104	0xbc96b268	-0.018395618
105	0x3e347a2d	0.17624731
106	0x3e438d5f	0.19096898
107	0x3d89de1e	0.067318186
108	0x3d400225	0.046877045
109	0xbe5628a4	-0.2091394
110	0x3d7d47bb	0.061835986
111	0x3e17b986	0.14816865
112	0xbd30f57f	-0.043202873
113	0xbc9d4fb0	-0.019203037
114	0x3d9b8d46	0.07595305
115	0xbe028343	-0.12745385
116	0xbd96fecc	-0.073728174
117	0x3e1983c5	0.14991672
118	0x399cfae2	0.0002994156
119	0x3d59f480	0.05321169
120	0x3dbb5341	0.09146739
121	0xbcd5760d	-0.026057268
122	0x3ea4a9ba	0.3216074
123	0x3e5b494e	0.21414682
124	0xbd3bac5f	-0.045818683
125	0xbd875517	-0.066080265
126	0xbea0076d	-0.31255665
127	0x3dafc79b	0.085829936
128	0x3d7c77da	0.061637737
129	0x3e2ffdcc	0.1718666
130	0x3e07afab	0.13250606
131	0x3de18328	0.11011344
132	0x3e0d9856	0.13827643
133	0x3e899d99	0.2687805
134	0x3e93235c	0.28737915
135	0xbdbf3606	-0.09336476
136	0xbc816e43	-0.015799647
137	0xbe144261	-0.14478447
138	0x3e81e2eb	0.25368437
139	0x3eb7fca4	0.35934937
140	0xbe869d51	-0.26291898
141	0xbe8fb59d	-0.28068247
142	0x3c154285	0.009110098
143	0xbe5c41ef	-0.21509527
144	0x3e83112f	0.25599048
145	0xbd823345	-0.06357435
146	0x3dc0a344	0.094061404
147	0x3d47d677	0.048788514
148	0x3ca55327	0.020181252
149	0x3e25cdfd	0.1619186
150	0x3e196389	0.14979376
151	0xbdc048d5	-0.093888916
152	0xbe8d6d3e	-0.27622408
153	0xbf05d64c	-0.52280116
154	0xbda0ddc4	-0.078547984
155	0x3d9f3851	0.077744134
156	0x3e35ac09	0.17741407
157	0xbdb68461	-0.08911968
158	0xbeedb1f1	-0.4642482
159	0x3cb0ae98	0.021567628
160	0x3ee75e28	0.45189023
161	0x3e313add	0.17307611
162	0x3e4f95ae	0.20271942
163	0x3ec6bdfe	0.38816828
164	0x3e2fe3ad	0.17176695
165	0x3e307769	0.17233051
166	0xbdbe7eda	-0.09301539
167	0x3d2f9a5b	0.042871814
168	0x3d4927ee	0.049110346
169	0x3dffc66f	0.1248902
170	0xbd487889	-0.048943076
171	0xbca8643c	-0.020555608
172	0xbe107c45	-0.14109905
173	0xbe2f0063	-0.17089991
174	0x3cd8ddee	0.026473012
175	0x3e39b1d7	0.18134247
176	0xbe9c6917	-0.30548927
177	0xbed006e0	-0.40630245
178	0xbe9e4eb8	-0.30919433
179	0xbe8f76b6	-0.28020257
180	0xbe175a9e	-0.14780661
181	0xbec5b186	-0.38612002
182	0xbde95942	-0.11393978
183	0xbd6472b0	-0.055773437
184	0xbe711d52	-0.23546341
185	0x3e608631	0.2192619
186	0x3e2818de	0.16415736
187	0xbc8f721c	-0.017510466
188	0x3d05d88e	0.032677226
189	0x3d93c0a6	0.07214479
190	0x3df3c0ed	0.11902032
191	0xbced63c8	-0.028978243
192	0xbe2e307b	-0.17010681
193	0xbd36f396	-0.044665895
194	0xbd9735c4	-0.07383302
195	0xbb52c2fe	-0.0032159681
196	0xbe2b7bc4	-0.16746432
197	0xbda2b1c0	-0.07944059
198	0x3e1af31c	0.15131801
199	0x3e022a7c	0.12711519
200	0xbdff624c	-0.124699205
201	0xbd5d94ed	-0.054097105
202	0xbe2e1d57	-0.1700338
203	0xbf1f7a1f	-0.62295717
204	0xbedb076d	-0.42779103
205	0xbd340f9f	-0.04396021
206	0xbf00d59d	-0.5032595
207	0xbf00434b	-0.5010268
208	0xbea0ae09	-0.31382778
209	0xbe20bf6e	-0.15698025
210	0x3bdd543b	0.006754426
211	0xbccbe4ac	-0.024889313
212	0x3e33b601	0.17549898
213	0xbe28d1d0	-0.16486287
214	0x3e02287a	0.12710753
215	0x3eba0475	0.36331525
216	0x3e3222b5	0.17396052
217	0x3df31bdf	0.1187055
218	0x3c8054f8	0.015665516
219	0x3e1ef865	0.15524442
220	0x3df4deac	0.11956534
221	0x3e4f8f1f	0.2026944
222	0xbc8da214	-0.017289199
223	0xbe689523	-0.22713141
224	0xbe3e2944	-0.18570429
225	0x3e0cad22	0.1373792
226	0x3e87e54c	0.26542127
227	0xbd3d7ab7	-0.046259608
228	0xbb1e6054	-0.0024166303
229	0x3d7f43f6	0.062320672
230	0x3e2aebca	0.16691509
231	0xbc3c03f9	-0.0114755565
232	0xbdb0c5b1	-0.08631457
233	0xbc748768	-0.0149248615
234	0xbccb71ab	-0.024834475
235	0xbe375868	-0.17904818
236	0x3db2f72b	0.0873855
237	0x3d9a18ec	0.07524285
238	0x3e9c52c1	0.30531886
239	0x3da34465	0.079720296
240	0xbe44fcbf	-0.1923704
241	0xbd9df6f3	-0.077131175
242	0x3e44ef0a	0.19231811
243	0xbd23d697	-0.03999957
244	0x3d8a4010	0.067505
245	0xbd71028a	-0.058840312
246	0xbe654c75	-0.22392447
247	0xbd2eace7	-0.04264536
248	0xbcf51eb6	-0.02992187
249	0xbd9c4893	-0.0763103
250	0xbc343bdf	-0.0110006025
251	0xbdaf3d22	-0.08556582
252	0xbefba486	-0.4914896
253	0xbea6ac05	-0.32553115
254	0xbd3f1397	-0.04664954
255	0x3e0ef0c2	0.1395903

net.8.bias f4 [120]
0	0xbd52aeef	-0.05143636
1	0xbd4002ff	-0.046877857
2	0xbcfd6b04	-0.030934818
3	0xbe283349	-0.16425814
4	0xbdeebaf6	-0.11656754
5	0x3e0a3476	0.13496575
6	0xbd3801c2	-0.04492355
7	0xbc96fdc5	-0.018431554
8	0xbdf5404e	-0.11975156
9	0xbe1c5a82	-0.15268901
10	0xbd5395f8	-0.051656693
11	0xbd666bec	-0.056255266
12	0xbe1e2037	-0.15441976
13	0xbca55985	-0.020184288
14	0xbd938cfa	-0.072046235
15	0xbca52a30	-0.020161718
16	0x3a8335b4	0.0010010512
17	0x3d0201ad	0.03173988
18	0xbde04bab	-0.109519325
19	0xbbc8c3b9	-0.0061268476
20	0x3c27422e	0.01020865
21	0xbd210cad	-0.03931873
22	0xbd95f02f	-0.07321202
23	0x3d77935e	0.060443275
24	0x3e2c0278	0.16797817
25	0xbc09fb8a	-0.008421788
26	0xbd6704dc	-0.05640112
27	0x3cb8bec3	0.0225519
28	0x3d5be27c	0.05368279
29	0x3d59c919	0.053170297
30	0xbe2c52ea	-0.16828504
31	0xbd9c44c9	-0.07630307
32	0xbe2fc481	-0.17164804
33	0xbd435708	-0.04769042
34	0x3cb2cce0	0.021826208
35	0xbd88a14e	-0.066713914
36	0x3be7d684	0.007075133
37	0x3cb596cd	0.022166634
38	0xbe19a466	-0.1500412
39	0x3bd1fbe0	0.0064081997
40	0xbd9b17e8	-0.07572919
41	0xbc03dcfc	-0.008048292
42	0x3d8cd505	0.06876568
43	0xbd1f857d	-0.038945664
44	0xbcf1c197	-0.029511256
45	0x3c9613f1	0.018320056
46	0xbd0d7877	-0.034538712
47	0xbd9bf7db	-0.07615634
48	0xbb7cd2fe	-0.003857791
49	0xbcf72ac1	-0.030171754
50	0x3c2e85fd	0.0106520625
51	0x3bbd810c	0.005783206
52	0xbdc9c2b0	-0.09851587
53	0xbe061f41	-0.1309786
54	0xbd901ea4	-0.07037094
55	0xbd1ecbb3	-0.03876848
56	0xbe433928	-0.19064772
57	0xbd59ae71	-0.053144876
58	0x3d10b50c	0.03532891
59	0xbda8845d	-0.08228371
60	0xbd65a555	-0.056065876
61	0xbd16a0c9	-0.03677443
62	0xbe031075	-0.12799247
63	0xbd668cd0	-0.056286633
64	0x3d82ba82	0.0638323
65	0xbde274c3	-0.11057427
66	0xbdb95ca6	-0.090508744
67	0xbd7ff5bc	-0.06249021
68	0xbda559ef	-0.08073794
69	0xbda50b5b	-0.080588065
70	0xbde10410	-0.10987103
71	0x3bb234b1	0.00543841
72	0xbd564e29	-0.052320633
73	0xbd4e8946	-0.050423883
74	0xbdb853d7	-0.09000366
75	0xbe209fb2	-0.15685919
76	0x3d0345b8	0.03204891
77	0xbdabcfa6	-0.08389215
78	0xbbe83674	-0.0070865694
79	0x3de0b3a7	0.10971766
80	0xbe0d13b9	-0.13777055
81	0xbd444cf7	-0.047924962
82	0xbc90aea2	-0.017661396
83	0x3d901a79	0.07036299
84	0xbdd2c546	-0.10291533
85	0xbc85890e	-0.016300704
86	0xbc88ea01	-0.016713144
87	0xbddba8b6	-0.107255384
88	0xbd32431d	-0.043521035
89	0xbd349ff2	-0.04409785
90	0x3d1f6dae	0.038922958
91	0xbb0aa3af	-0.0021154692
92	0xbcac2a4e	-0.021016266
93	0x3d1102e4	0.035403147
94	0xbe408be2	-0.18803361
95	0x3cf0e256	0.0294048
96	0xbdf48857	-0.11940067
97	0x3d1dc733	0.03852005
98	0xbd9d1d56	-0.07671611
99	0xbbce25f2	-0.0062911445
100	0xbdec2bb2	-0.11531772
101	0xbdaa4a29	-0.08314926
102	0xbcbf5032	-0.02335367
103	0x3d0d47ad	0.034492183
104	0xbd135718	-0.03597173
105	0xbd74a944	-0.059731737
106	0x3e445d7d	0.19176288
107	0xbdccf181	-0.10007001
108	0xbdac0225	-0.083988465
109	0xbd27895d	-0.040902484
110	0xbd052d2c	-0.032513782
111	0x3bd34545	0.0064474666
112	0x3d0e752b	0.03477971
113	0xbdb4398a	-0.08800037
114	0xbda7aece	-0.08187638
115	0xbe3fa64f	-0.18715785
116	0xbd9269a8	-0.071490586
117	0xbd62cead	-0.055372883
118	0x3cbc83a3	0.023011988
119	0xbe197f39	-0.14989938

net.10.weight f4 [84, 120]
0	0x3e5ff680	0.21871376
1	0xbd9d6a05	-0.07686237
2	0x3ced4584	0.028963812
3	0xbeb5a98a	-0.3548091
4	0x3ce00ff7	0.027351363
5	0xbdc3e62a	-0.09565385
6	0xbd1cd4d9	-0.038288925
7	0xbe16bfbb	-0.14721577
8	0xbd4330b9	-0.047653887
9	0x3e82c2ea	0.25539333
10	0x3e410538	0.18849647
11	0x3e84d873	0.25946388
12	0x3d3b37ee	0.045707636
13	0xbc5274a7	-0.012845195
14	0x3d174ea4	0.036940232
15	0xbe3023e1	-0.17201187
16	0x3d06825d	0.032839168
17	0xbdbf5e0d	-0.09344111
18	0x3d92860f	0.07154476
19	0xbd7aca0f	-0.061227854
20	0xba91bd4f	-0.001111904
21	0x3dda9280	0.10672474
22	0x3e2a1ff5	0.16613753
23	0xbd909a22	-0.070606485
24	0xbe435cd0	-0.19078374
25	0xbb66a71d	-0.0035194822
26	0xbc3fe856	-0.011713108
27	0xbe431faa	-0.19055048
28	0xbd823e62	-0.06359555
29	0xbd5187fb	-0.05115507
30	0x3c274908	0.010210283
31	0x3ecc46a6	0.3989765
32	0x3d7eb4d8	0.062184185
33	0xbe6648b5	-0.22488673
34	0x3e3257f9	0.17416371
35	0x3dc5c288	0.096562445
36	0xbd356fad	-0.044295955
37	0x3db19c4c	0.086723894
38	0x3e81c642	0.2534657
39	0xbd21b3b0	-0.039478004
40	0xbc4c272c	-0.012460511
41	0x3e10add3	0.14128809
42	0x3b46f6fa	0.0030359612
43	0x3cab7452	0.02092949
44	0xbd87b1c4	-0.06625703
45	0xbc7d1100	-0.015445948
46	0x3d005555	0.03133138
47	0xbe35663e	-0.17714784
48	0xbeb5c91c	-0.35504997
49	0x3e7acb9d	0.24491735
50	0x3e661488	0.2246877
51	0x3d034436	0.032047473
52	0x3b7014f6	0.0036633587
53	0x3d38e7f9	0.0451431
54	0xbd0e300d	-0.034713794
55	0xbcf834d8	-0.030298635
56	0xbc323c1d	-0.01087859
57	0xbee3d4b8	-0.4449823
58	0xbd836019	-0.064148135
59	0x3e01d717	0.12679707
60	0xbca8e88e	-0.020618703
61	0xbe0874fc	-0.13325876
62	0x3d17dc24	0.037075177
63	0xbb8d34c2	-0.0043092677
64	0x3e3502f4	0.17676908
65	0x3cc33b48	0.023831978
66	0xb9430a06	-0.00018600383
67	0x3e147ac8	0.14499962
68	0x3e3c3d72	0.18382815
69	0x3dcaf040	0.09909105
70	0x3d1d6f9c	0.038436517
71	0xbd414b82	-0.04719115
72	0xbe76e68b	-0.24111383
73	0x3e3b8387	0.18311892
74	0xbcd925fe	-0.026507374
75	0x3e1786d3	0.14797525
76	0xbc9a154b	-0.018808981
77	0xbe719273	-0.23591022
78	0x3d8fc22c	0.07019457
79	0x3dd8a54f	0.10578405
80	0xbd4c4c42	-0.049877413
81	0x3d960ebc	0.07327029
82	0x3dbe8d12	0.09304251
83	0xbedde470	-0.43338346
84	0x3ddb4f4a	0.107084826
85	0x3e06ba28	0.1315695
86	0xbd2b9c7d	-0.041897286
87	0x3d5bcf7b	0.053664666
88	0x3e6e6acf	0.23282932
89	0xbcbaa56b	-0.022783956
90	0x3dcc8fe4	0.099883825
91	0x3d1bce28	0.038038403
92	0xbdbd8b26	-0.09255056
93	0xbd7121d6	-0.05887016
94	0x3dd0ef4a	0.10201891
95	0xbe04ea92	-0.12980106
96	0xbd9f401f	-0.07775902
97	0x38ce85c2	9.84776e-05
98	0x3e33acda	0.17546406
99	0xbd2699bf	-0.040673967
100	0x3e40dbda	0.18833867
101	0x3d392b31	0.045207206
102	0x3dc21d9c	0.09478304
103	0xbe21f8f8	-0.1581763
104	0x3e91e012	0.28491265
105	0x3d2a0373	0.041507196
106	0xbd81c508	-0.06336409
107	0x3c5997e2	0.013280841
108	0x3cc6c7b2	0.024265144
109	0xbd2edab4	-0.04268904
110	0x3c01231b	0.007881905
111	0x3d478f3b	0.04872058
112	0x3ea1fe18	0.3163917
113	0x3e1e75ab	0.15474574
114	0xbded4d26	-0.115869805
115	0x3e0ec900	0.13943863
116	0x3e60fc56	0.21971259
117	0x3de23556	0.11045329
118	0x3db8eacb	0.09029158
119	0x3e8b4f85	0.27209106
120	0xbe1cd22a	-0.15314546
121	0x3bff9aed	0.007800451
122	0xbd2fe625	-0.042944092
123	0xbd33b666	-0.04387512
124	0x3df66eb2	0.12032832
125	0xbe1c2b93	-0.15250997
126	0xbd9ca813	-0.07649245
127	0x3e36db5c	0.17857116
128	0xbd86f29d	-0.065892436
129	0xbece143b	-0.4024981
130	0x3e5520eb	0.20813338
131	0x3eed3aa5	0.46333805
132	0x3d7bb3f6	0.06145092
133	0x3e2afd55	0.16698201
134	0xbe7b003d	-0.2451181
135	0xbe830931	-0.2559295
136	0x3e809fc1	0.25121883
137	0x3e2a77aa	0.1664721
138	0xbe120bdb	-0.14262335
139	0xbec5a0ca	-0.38599235
140	0xbcd99edc	-0.026565008
141	0xbd0e3db8	-0.03472683
142	0xbde515df	-0.11185812
143	0xbe466255	-0.19373448
144	0xbe582809	-0.21109022
145	0xbd923cff	-0.0714054
146	0x3d80343c	0.06259963
147	0x3e6587df	0.22415112
148	0xbed37d6e	-0.41306633
149	0xbda7bb16	-0.08189981
150	0x3d5c845d	0.05383717
151	0xbda2ca14	-0.079486996
152	0x3dd58a1a	0.104267314
153	0xbe05b9b1	-0.13059117
154	0x3dd7f434	0.10544625
155	0xbdb7c51d	-0.08973143
156	0xbd345b97	-0.04403266
157	0x3dc92b40	0.098227024
158	0xbc97ffcc	-0.01855459
159	0xbd0f6263	-0.03500594
160	0xbe13796d	-0.14401789
161	0x3d52a68d	0.051428366
162	0x3bfe6a93	0.0077641695
163	0x3e7b2571	0.24526002
164	0x3b28b73b	0.002574398
165	0xbe426182	-0.18982509
166	0xbe0571c9	-0.13031687
167	0xbec98a1a	-0.39363176
168	0x3abac73c	0.001425005
169	0xbdde9e1e	-0.10870002
170	0x3d643842	0.055717714
171	0xbee4385f	-0.44574258
172	0xbe4b18ec	-0.19833726
173	0xbe025931	-0.12729336
174	0x3da146e2	0.07874848
175	0xbd984ed6	-0.07436912
176	0xbea1748e	-0.31534237
177	0xbdec515b	-0.11538955
178	0x3d9bc181	0.07605267
179	0xbee57af5	-0.4482037
180	0xbd7166b7	-0.058935847
181	0xbe8bc351	-0.27297452
182	0xbe888eb3	-0.2667137
183	0x3d39c16b	0.045350473
184	0xbe59f691	-0.21285464
185	0x3cc6372c	0.02419623
186	0x3dd678aa	0.104722336
187	0x3d94d714	0.072675854
188	0x3e8161a5	0.2526981
189	0x3e4fa821	0.2027898
190	0x3db1ab82	0.08675291
191	0x3e009548	0.12556946
192	0x3ed64a05	0.41853347
193	0xbebcb1a3	-0.36854276
194	0x3c9ef4f1	0.019403907
195	0xbd1224fd	-0.035679806
196	0x3dd837ab	0.10557493
197	0xbe741287	-0.23835193
198	0xbdd00b72	-0.10158433
199	0xbcc09134	-0.023506738
200	0x3e19d730	0.15023494
201	0xbc395661	-0.011312098
202	0x3e32d4ee	0.17464039
203	0x3e8990d9	0.26868322
204	0xbec58b60	-0.38582897
205	0xbe591820	-0.21200609
206	0x3d04a3af	0.032382663
207	0xbdc0637d	-0.09393976
208	0xbe69421d	-0.22779126
209	0xbd4fc44b	-0.05072431
210	0xbc6feb3b	-0.014643486
211	0xbd3919a1	-0.045190457
212	0xbe888573	-0.26664314
213	0xbd8e6206	-0.0695229
214	0xbc57c1de	-0.01316878
215	0x3da5e865	0.08100966
216	0xbe0fbe2d	-0.1403739
217	0xbedb63ad	-0.42849484
218	0xbd93f4e6	-0.07224445
219	0xbd24691b	-0.0401393
220	0xbe410abf	-0.18851756
221	0x3cb210a1	0.021736445
222	0x3dd17a79	0.10228438
223	0x3e2c1cec	0.16807908
224	0x3c6cdf08	0.014457472
225	0x3e1ba07e	0.15197942
226	0xbcce1277	-0.02515529
227	0xbd8c1ada	-0.06841059
228	0xbd3a16ab	-0.045431774
229	0x3c8e2e90	0.017356187
230	0xbda5c1c4	-0.080935985
231	0xbde7c1df	-0.11316275
232	0xbe37a9c7	-0.17935859
233	0xbde51a69	-0.11186678
234	0x3c4bcb68	0.012438633
235	0xbe8657e4	-0.2623893
236	0x3d061b1f	0.03274071
237	0xbecb8aab	-0.39754233
238	0x3db8d6f7	0.09025376
239	0x3e11283c	0.14175504
240	0x3d304277	0.043032136
241	0xbc9e9807	-0.019359602
242	0xbb804888	-0.0039148964
243	0xbc0ef6db	-0.008725847
244	0xbd27dd6c	-0.04098265
245	0x3e341f77	0.17590128
246	0x3cd1c021	0.02560431
247	0xbe1a2dd3	-0.15056543
248	0xbe327444	-0.17427164
249	0xbebf1013	-0.3731695
250	0x3de66dbb	0.11251398
251	0xbe9ce1d4	-0.30641043
252	0x3dc97a18	0.09837741
253	0x3e02e7fb	0.12783806
254	0x3e98a076	0.29809922
255	0xbdf33768	-0.11875802

net.10.bias f4 [84]
0	0xbe1a33e1	-0.15058853
1	0xbd82515b	-0.063631736
2	0x3d4e7c91	0.050411765
3	0xbe218b20	-0.15775728
4	0xbd1bcfaa	-0.03803984
5	0x3e6b9b03	0.23008351
6	0x3e367366	0.17817459
7	0x3cac2b95	0.021016875
8	0x3defab5b	0.11702605
9	0x3d1454f5	0.036213834
10	0xbd408cf0	-0.04700941
11	0xbe52406e	-0.2053239
12	0xbe1f9929	-0.1558577
13	0x3bb65b56	0.0055650873
14	0x3d9862ce	0.074407205
15	0xbcb4403a	-0.022003282
16	0xbdfceaa4	-0.12349442
17	0xbd94f1ac	-0.07272658
18	0xbe4c66f9	-0.19961156
19	0xbdb7a09c	-0.08966181
20	0x3ddea81c	0.10871908
21	0xbeaa942c	-0.3331617
22	0xbe04672e	-0.12929985
23	0xbe74e513	-0.2391551
24	0xbe36d589	-0.17854895
25	0xbd5eeac8	-0.054423124
26	0xbd90d01f	-0.07070946
27	0x3e4659ab	0.19370143
28	0x3e7eba57	0.2487577
29	0x3d04d27c	0.032427296
30	0x3e59cec1	0.21270277
31	0x3d9a251e	0.07526611
32	0xbe7c0a56	-0.24613318
33	0xbcf01ad6	-0.029309671
34	0x3aaa59f4	0.0012996779
35	0xbe919780	-0.28435898
36	0xbe43bf22	-0.1911588
37	0xbdb0433e	-0.086065754
38	0xbe49ef68	-0.19720232
39	0xbe5b9bc4	-0.21446139
40	0x3e0d400d	0.13793965
41	0xbe674b40	-0.225873
42	0xbdde4c55	-0.10854403
43	0xbec595e8	-0.38590932
44	0xbdeb0a51	-0.11476577
45	0xbe8bcfcb	-0.2730697
46	0xbde6b265	-0.11264495
47	0xbe67ce29	-0.22637238
48	0xbe8189fa	-0.2530058
49	0xbce1a119	-0.027542638
50	0xbda73b09	-0.08165557
51	0xbe38565c	-0.18001693
52	0xbd9455d9	-0.07242937
53	0x3d2f0754	0.042731598
54	0x3e3106b8	0.17287719
55	0x3e716c98	0.23576581
56	0x3de8664a	0.11347635
57	0x3e250d74	0.16118413
58	0x3e9014e9	0.28140953
59	0x3e459fbd	0.19299217
60	0xbdc4f29a	-0.09616585
61	0xbe662b55	-0.22477467
62	0xbd48d57c	-0.04903172
63	0x3ca15a1d	0.01969629
64	0xbe7ac6d3	-0.24489908
65	0xbd0b5a2a	-0.034021534
66	0x3d83ba87	0.06432062
67	0x3e448465	0.1919113
68	0xbe403d0c	-0.18773288
69	0x3de22fb9	0.110442586
70	0xbea7a13e	-0.32740206
71	0x3dc3cef2	0.09560956
72	0x3d33f577	0.043935265
73	0x3e062ce3	0.1310306
74	0x3e7a1d9d	0.24425359
75	0xbd66e1da	-0.056367733
76	0xba54907c	-0.0008108688
77	0xbe08f041	-0.133729
78	0xbda07a0c	-0.078357786
79	0xbda4104e	-0.08010922
80	0x3d6630bc	0.05619882
81	0xbdc2033b	-0.094732724
82	0xbdf2bfcd	-0.11852989
83	0x3d1d1382	0.038348682

net.12.weight f4 [10, 84]
0	0xbed5b2c4	-0.4173795
1	0xbec2274b	-0.37920603
2	0x3e26b037	0.16278158
3	0x3cbc5e08	0.022994056
4	0x3e56fcf9	0.20994939
5	0x3d628a6b	0.055307787
6	0x3bf398ea	0.0074340003
7	0x3d83a31f	0.06427597
8	0x3dda7207	0.1066628
9	0x3e12b0d1	0.14325263
10	0x3dd1d519	0.10245723
11	0x3d9f800e	0.07788096
12	0x3d51c763	0.05121554
13	0xbecb31da	-0.3968647
14	0xbe9627b3	-0.29327163
15	0x3e4ca0b7	0.19983183
16	0x3d1fcba6	0.039012574
17	0xbe2e3a04	-0.17014319
18	0x3c302aeb	0.01075242
19	0xbd56abb8	-0.052409858
20	0xbdcbfc79	-0.09960265
21	0xbf012e5d	-0.5046137
22	0xbe24fadd	-0.16111322
23	0xbe8eb8f1	-0.27875474
24	0xbe794532	-0.24342802
25	0x3d2e3523	0.042531144
26	0x3db37177	0.08761876
27	0xbd46ca4f	-0.04853278
28	0xbeb7be34	-0.358873
29	0xbc4d4f7b	-0.012531157
30	0x3dc9c7ed	0.09852586
31	0xbe76e930	-0.24112391
32	0xbe2e6c81	-0.17033578
33	0x3dcfa0fa	0.10138126
34	0xbcec5ba3	-0.02885229
35	0xbe22d9d5	-0.15903409
36	0xbd583407	-0.052783992
37	0x3dddd40d	0.10831461
38	0x3e048553	0.12941484
39	0xbcae79c1	-0.021298291
40	0xbd65ad68	-0.056073576
41	0xbe3aa0a3	-0.1822534
42	0xbcc1387f	-0.02358651
43	0x3e05b0cf	0.13055728
44	0x3d987305	0.07443813
45	0xbcb3905d	-0.021919424
46	0xbf2bf342	-0.67168057
47	0xbd000486	-0.031254314
48	0xbd4bd541	-0.04976392
49	0xbe1b4251	-0.15162016
50	0x3b8978a1	0.0041952883
51	0x3e0f22f1	0.13978173
52	0xbf0723a8	-0.5278878
53	0xbd04f9ef	-0.032464918
54	0xbe36be2f	-0.17845987
55	0x3b7f576d	0.0038962022
56	0xbe2f1c39	-0.1710061
57	0xbec2b7fc	-0.38030994
58	0xbe9abecf	-0.302237
59	0x3cba8979	0.02277063
60	0x3dfcf44f	0.12351286
61	0xbe64f037	-0.2235726
62	0xbe0f679e	-0.1400437
63	0x3e361669	0.17781986
64	0xbac4f8b6	-0.0015027735
65	0x3e5a7bd8	0.21336305
66	0xbe0fb36d	-0.14033289
67	0xbe95cc85	-0.292576
68	0xbe15eda4	-0.14641434
69	0xbe844994	-0.25837386
70	0x3dccb44f	0.09995329
71	0xbdd7d976	-0.10539524
72	0xbe8b60d7	-0.2722232
73	0xbe8e4708	-0.27788568
74	0xbe5b6777	-0.21426187
75	0xbe8deda1	-0.2772036
76	0x3d7efa38	0.062250346
77	0xbe4964fe	-0.19667432
78	0xbdc4a717	-0.09602182
79	0xbb2c1eec	-0.0026263548
80	0xbebe9aaa	-0.37227374
81	0x3d19a887	0.037514236
82	0xbe48852a	-0.19582048
83	0xbf26d933	-0.6517517
84	0x3d232f69	0.039840136
85	0xbe2c58cb	-0.16830747
86	0xbd88387a	-0.06651397
87	0x3d9d5664	0.07682493
88	0xbe33cba0	-0.17558146
89	0xbecf83e5	-0.40530315
90	0xbd2bc442	-0.041935213
91	0xbec2c167	-0.3803818
92	0x3dc3833a	0.09546514
93	0xbe276499	-0.16346969
94	0xbd5321f6	-0.05154606
95	0xbed5c22b	-0.417497
96	0xbecd2307	-0.40065786
97	0x3e0b52f5	0.13605864
98	0x3d7e9cb8	0.062161177
99	0xba0a608c	-0.0005278669
100	0x3e19484f	0.1496899
101	0xbf192fc6	-0.5983852
102	0x3c9659f2	0.018353436
103	0x3cdcba31	0.026944252
104	0xbb403f66	-0.0029334663
105	0x3c70f25d	0.014706221
106	0xbe10e083	-0.14148144
107	0x3e985b6f	0.29757258
108	0xbecef90c	-0.40424383
109	0xbda3768d	-0.07981596
110	0xbebd6c29	-0.36996582
111	0x3de3aa9e	0.11116527
112	0xbe8f8bbb	-0.28036293
113	0x3dde6c4d	0.108605005
114	0xbc53ba70	-0.012922868
115	0xbdf8a501	-0.12140847
116	0xbd5ac8a4	-0.053414002
117	0xbe104b18	-0.14091146
118	0xbe13c858	-0.14431894
119	0xbe08ecc3	-0.13371567
120	0xbc834483	-0.01602388
121	0x3de8cec4	0.113675624
122	0xbde7de07	-0.11321645
123	0x3d8280ea	0.06372245
124	0xbe1db79a	-0.1540207
125	0xbe4bd2a0	-0.19904566
126	0xbe0200ec	-0.12695664
127	0x3dcf00c8	0.10107571
128	0xbe9b318c	-0.3031124
129	0xbe0d7bfc	-0.13816828
130	0x3e375547	0.17903624
131	0xbdddaebc	-0.108243436
132	0xbe4c47ec	-0.19949311
133	0xbe29045d	-0.1650557
134	0xbe945895	-0.28973833
135	0x3e1e7064	0.15472561
136	0x3d4aacc7	0.04948118
137	0xbeb117e3	-0.34588537
138	0xbeef6a37	-0.46760723
139	0xbf0b4713	-0.54405326
140	0x3bf298ee	0.0074034845
141	0x3e2bbe8f	0.16771911
142	0xbe7945c7	-0.24343024
143	0x3e673d35	0.22581942
144	0x3dea9ed7	0.114560775
145	0x3e175971	0.14780213
146	0xbd97d085	-0.07412819
147	0xbe32319d	-0.17401738
148	0xbd5c6239	-0.05380461
149	0xbef3adeb	-0.47593626
150	0x3dd00e14	0.10158935
151	0xbd8e3bd1	-0.06945003
152	0x3e3c98fa	0.18417731
153	0xbf0faae5	-0.5612014
154	0xbdc62bcb	-0.096763216
155	0xbe8f358b	-0.27970538
156	0xbdb834c6	-0.08994441
157	0x3dc4c35b	0.096075736
158	0x3d9f90e4	0.077913076
159	0x3d80a5b6	0.06281607
160	0xbd7b7804	-0.061393753
161	0xbe5601a9	-0.20899071
162	0x3e340975	0.17581733
163	0x3c62679e	0.01381865
164	0x3d920eb0	0.07131708
165	0xbe51a0ba	-0.20471469
166	0xbd259b08	-0.040431052
167	0x3dc80c4c	0.097679704
168	0xbe197473	-0.14985828
169	0xbe434828	-0.19070494
170	0xbda8586b	-0.082199894
171	0xbe342902	-0.17593768
172	0xbe5eb02a	-0.21746889
173	0x3df1ebeb	0.11812576
174	0x3dcf8f61	0.10134769
175	0xbd97a012	-0.07403578
176	0xbe273b84	-0.16331297
177	0xbeca9e71	-0.39574006
178	0xbef159af	-0.47138736
179	0xbe631c4c	-0.22178763
180	0xbe98a977	-0.2981679
181	0x3e0a86a9	0.13527931
182	0xbcecdee4	-0.028914876
183	0xbdcecf6a	-0.10098155
184	0x3debea51	0.11519302
185	0xbe765186	-0.24054536
186	0xbe66417e	-0.22485921
187	0x3c9c1c3e	0.019056436
188	0xbc911dd5	-0.01771442
189	0xbe6226a8	-0.22085059
190	0xbe690cb0	-0.22758746
191	0xbea1b328	-0.31581998
192	0xbd643f2c	-0.055724308
193	0x3d1fa36c	0.03897421
194	0x3e1c04cc	0.15236205
195	0x3ddb7695	0.10715977
196	0xbe85b9a6	-0.261182
197	0xbd8cb41a	-0.06870289
198	0x3e0dfc04	0.13865668
199	0xbee6bec0	-0.45067406
200	0xbbb8a041	-0.005634338
201	0xbeb8a0ab	-0.3606008
202	0xbdead9b7	-0.11467307
203	0xbc1e2881	-0.009653212
204	0xbe00d4d7	-0.12581192
205	0x3da0d8e1	0.07853866
206	0xbe97da60	-0.29658794
207	0x3e159957	0.14609276
208	0xbbb92fc9	-0.0056514484
209	0xbe15b153	-0.14618425
210	0xbd6bf91d	-0.05761062
211	0x3e1b12db	0.15143912
212	0xbe2dc828	-0.16970885
213	0xbe98d0ed	-0.29846898
214	0xbe1251b9	-0.14288987
215	0xbe309834	-0.17245561
216	0x3e5422d4	0.20716411
217	0x3da1198f	0.07866203
218	0xbddc6061	-0.1076057
219	0xbe816d3f	-0.2527866
220	0xbea9918a	-0.3311885
221	0x3e40d4f8	0.18831241
222	0xbda37659	-0.079815574
223	0xbd259761	-0.04042757
224	0x3e309561	0.17244484
225	0x3c152829	0.009103813
226	0xbdc3e796	-0.09565656
227	0xbebe8134	-0.3720795
228	0xbe259ecb	-0.16173856
229	0x3e186528	0.14882338
230	0x3de49671	0.11161507
231	0x3b005a8b	0.0019585218
232	0x3e3cd0a6	0.18438968
233	0xbeacade3	-0.33726415
234	0x3e02ab93	0.12760763
235	0xbe77ac49	-0.24186815
236	0x3e070ee7	0.13189279
237	0xbe983792	-0.29729897
238	0xbe2ab130	-0.16669154
239	0xbe8615d3	-0.26188526
240	0x3cc6dd29	0.02427538
241	0x3e110f0e	0.14165899
242	0xbe84cece	-0.2593903
243	0xbd0faf95	-0.035079557
244	0xbc9d6949	-0.019215243
245	0xbe4ff79a	-0.20309296
246	0xbd9f4e0e	-0.077785596
247	0x3e4f37c4	0.20236117
248	0x3e083b04	0.13303763
249	0xbebbe021	-0.36694434
250	0xbd089ecd	-0.03335457
251	0xbe89753a	-0.2684725
252	0x3da1920a	0.07889183
253	0xbf334d4e	-0.7003983
254	0xbdf9d08f	-0.121979825
255	0xbeaaefce	-0.3338608

net.12.bias f4 [10]
0	0xbd3185ba	-0.043340422
1	0xbdd7e82c	-0.1054233
2	0xbdb7e17d	-0.08978555
3	0xbbc113b4	-0.0058922414
4	0xbdf08eff	-0.11746024
5	0xbe18ef5b	-0.14935057
6	0xbe3e5f83	-0.18591122
7	0xbd70c36f	-0.05878013
8	0x3e6ebadb	0.23313467
9	0xbd10c379	-0.035342667
