handwrittenDigitRecognition/result/LeNetModel.pth (torch, 250658 bytes, 10 tensors)

net.1.weight f4 [6, 1, 5, 5]
0.09289086 0.018633256 0.05314325 0.01756553 0.07980571 3.0094752e-05 0.1969785 -0.33554065
-0.5091829 -0.15377441 -0.3148755 0.086082116 0.119999774 0.124349676 0.214083 -0.096188284
0.23965049 -0.04805478 0.27149975 -0.01820358 -0.16678663 0.13053012 -0.21771438 0.02467472
-0.07453763 -0.14512475 0.0792319 0.0205787 0.14882381 0.09625058 0.21844302 0.37733462
0.16540138 0.10317509 0.35836574 -0.15008873 0.09113584 -0.024011562 -0.07886783 0.08816501
0.051008355 0.049127527 -0.32786316 -0.31877726 -0.4894406 0.014264509 -0.32885808 -0.07501967
-0.07323136 0.019773507 0.18072473 -0.31121686 -0.46164858 -0.09884952 -0.010466291 -0.26046398
-0.31572187 -0.107581876 0.34411538 0.10216214 -0.23838414 -0.12918502 0.4902294 0.29331207
-0.11763967 0.19546041 0.3006217 0.077953786 -0.032351084 -0.15589795 0.11744224 -0.124982536
0.11767337 0.012983167 0.023645887 -0.08509838 0.16276653 -0.2148177 -0.19329143 -0.059368428
-0.009599026 0.11880049 0.2034679 0.038601372 -0.05365438 0.057120018 0.28644806 0.29928488
0.24367179 -0.2027651 -0.1778153 0.08164052 0.07221972 0.24377501 -0.067012794 -0.66790706
-0.21506166 -0.28611 -0.055897042 0.10406182 0.024696695 -0.25811628 -0.27199322 0.046576805
0.14868847 0.13866451 -0.05452645 -0.2886891 -0.5055214 -0.17413732 0.24354237 -0.02538652
-0.0976337 -0.30394116 -0.20412466 0.09482418 0.41258845 -0.14240642 0.08761137 0.08163293
0.13110934 0.044983353 0.21991198 0.37636188 0.16274521 -0.21026978 -0.10780216 0.19232401
0.13333297 0.14649193 -0.026897088 -0.16714068 0.31001022 -0.08299103 0.23640068 -0.44192916
-0.17207795 0.25924993 -0.097764716 0.17954756 -0.4030728 -0.12842035 0.17826398 0.09659656
-0.0036999586 -0.20032485 -0.13246855 0.013053979 0.1537822 -0.1316125
00000000: 903d be3d c5a4 983c bdac 593d 96e5 8f3c
00000010: 2d71 a33d fd73 fc37 bbb4 493e fccb abbe
00000020: cf59 02bf 0a77 1dbe 5d37 a1be d24b b03d
00000030: 71c2 f53d 0bab fe3d 9338 5b3e 5dfe c4bd
00000040: f066 753e 17d5 44bd 0402 8b3e ad1f 95bc
00000050: 1dca 2abe b0a9 053e 85f0 5ebe a322 ca3c
00000060: 2fa7 98bd 959b 14be 5644 a23d a994 a83c
00000070: 4565 183e 061f c53d 87af 5f3e 0132 c13e
00000080: fb5e 293e 764d d33d b77b b73e dcb0 19be
00000090: 6da5 ba3d e5b3 c4bc 7585 a1bd db8f b43d
000000a0: 23ee 503d f239 493d aedd a7be c636 a3be
000000b0: f597 fabe b0b5 693c 1660 a8be eaa3 99bd
000000c0: 53fa 95bd 0dfc a13c e70f 393e d157 9fbe
000000d0: 345d ecbe 9e71 cabd ce7a 2bbc 895b 85be
000000e0: 4ca6 a1be e353 dcbd e42f b03e 623a d13d
000000f0: f91a 74be 1449 04be 59ff fa3e 002d 963e
00000100: 11ed f0bd c626 483e 16eb 993e 3ca6 9f3d
00000110: 9282 04bd b6a3 1fbe 8f85 f03d d8f6 ffbd
00000120: bcfe f03d 59b7 543c 05b5 c13c 0f48 aebd
00000130: 45ac 263e 2cf9 5bbe 30ee 45be 4f2c 73bd
00000140: 3c45 1dbc ac4d f33d e459 503e 791c 1e3d
00000150: b2c4 5bbd aef6 693d 52a9 923e de3b 993e
00000160: 1985 793e a8a1 4fbe 3715 36be 2533 a73d
00000170: efe7 933d 28a0 793e 013e 89bd f5fb 2abf
00000180: 2039 5cbe 037d 92be 4cf4 64bd 5d1e d53d
00000190: b950 ca3c d127 84be b242 8bbe 52c7 3e3d
000001a0: ca41 183e 12fe 0d3e 2057 5fbd 0fcf 93be
000001b0: da69 01bf 0e51 32be 2c63 793e 64f7 cfbc
000001c0: 2df4 c7bd 2d9e 9bbe 0e06 51be 2e33 c23d
000001d0: cb3e d33e fdd2 11be 976d b33d 2a2f a73d
000001e0: 8741 063e 7740 383d 9b30 613e 81b2 c03e
000001f0: aea6 263e f650 57be 61c7 dcbd 96f0 443e
00000200: 7088 083e fb01 163e 4857 dcbc ed26 2bbe
00000210: a9b9 9e3e 33f7 a9bd 0513 723e 8a44 e2be
00000220: 3435 30be 68bc 843e de38 c8bd 51db 373e
00000230: 8f5f cebe a080 03be d58a 363e 6bd4 c53d
00000240: 017b 72bb f521 4dbe d6a5 07be 5be0 553c
00000250: 1579 1d3e 6dc5 06be

net.1.bias f4 [6]
-0.43108052 -0.1790053 -0.30167723 -0.35547635 -0.09099897 -0.31852585
00000000: 96b6 dcbe 2a4d 37be 7075 9abe ff00 b6be
00000010: ab5d babd d215 a3be

net.4.weight f4 [16, 6, 5, 5]
0.1010991 0.1833585 0.07417073 0.22958185 0.25015536 0.1972614 -0.14343265 0.06304133
0.075890854 -0.007283681 0.024437284 -0.61279327 -0.49211347 0.0005251902 -0.057712577 0.07466658
0.21555004 0.0362436 -0.009718084 0.0661371 -0.029769396 0.023600476 0.1054762 0.038578074
-0.18355566 -0.033553977 -0.11717476 -0.33832723 -0.54929906 -0.32238495 0.11041465 0.18234809
0.3633205 0.24406622 0.120818526 -0.107724704 0.01947244 0.013224515 -0.1658899 -0.037693396
-0.074147604 -0.43027145 -0.69659984 -0.42303216 0.09198904 0.2303781 -0.015057379 -0.07201383
-0.073042005 -0.04343403 -0.05207539 -0.17047346 0.20190586 -0.017225048 0.054252427 -0.08436607
0.04568412 0.17738621 -0.10859406 -0.2598918 -0.26310068 -0.29994372 -0.39612326 -0.1862996
0.1155206 0.06403148 0.07251659 0.041492067 -0.082768686 0.08908527 0.35186723 -0.018999774
-0.2535963 0.004153108 0.065767735 0.016546888 -0.035089828 0.077998854 0.08775342 -0.004391306
0.064412065 0.00059260294 0.32072526 0.24602555 0.2063062 -0.116261676 -0.53626275 -0.4615199
-0.6803625 -0.35240704 -0.034984898 0.20951656 0.03784827 -0.19819652 -0.39127898 -0.009299408
0.05548981 -0.09226097 0.048605777 0.02089789 0.05182202 0.15908968 0.10566286 0.10651489
0.08046605 -0.26885703 -0.3878051 -0.35720915 -0.28357184 -0.48223555 -0.08067562 0.08245372
-0.023198871 -0.092730656 -0.4293564 -0.024024514 0.2355378 0.10909237 0.055271525 0.045978084
-0.06833135 -0.11926419 0.011746964 0.009208036 -0.18461628 -0.056377236 -0.38371626 0.2577821
-0.040861215 -0.097825035 0.17529191 -0.2811803 0.056722973 0.03056853 0.14185028 -0.15715215
-0.24336319 -0.31003353 0.024030834 0.03314985 0.0145541625 0.037056312 -0.23268506 -0.10139602
-0.24311246 0.18504584 0.13002352 0.08021651 -0.02875033 -0.28816402 0.055413693 -0.0967064
-0.07963301 0.0017756991 0.30287892 0.078831986 -0.005038046 0.11732347 0.42158562 0.06459372
-0.21491884 -0.32488415 -0.2999164 -0.31289667 -0.37279904 -0.22205709 -0.16025263 0.19442472
0.19112623 0.21677358 0.114010274 0.076052554 -0.16644694 0.06000525 0.07654832 0.028800434
-0.18008474 -0.04452079 0.03808276 -0.14952959 0.029757986 -0.021409454 0.08452505 0.072405785
0.11537656 0.031108458 0.11569863 0.17375201 0.1588034 0.0832067 -0.08313673 0.010735542
-0.22866401 -0.38302094 -0.481642 -0.6397016 -0.33296514 -0.2483827 0.070247546 0.18641268
-0.04218244 0.067384146 0.069114536 0.17404932 0.09975635 0.0035233765 0.058584914 -0.30247283
0.112179734 0.24243285 -0.084789254 -0.30676287 -0.46490484 -0.2820247 -0.53717864 0.042353332
-0.137689 0.025443932 -0.13453147 0.24816789 -0.014951832 0.02995435 0.14420475 0.15673918
0.2218098 -0.008736215 -0.050642736 -0.026460709 0.056563128 -0.04650191 0.04430081 -0.06914873
0.05888799 -0.050157256 0.37812886 0.27667838 0.2396811 -0.0031732318 0.20082286 0.12984803
-0.0036787472 -0.6041264 -0.6159386 -0.3782419 -0.35652408 0.15349138 0.09362464 0.075194865
0.122498125 0.06630064 -0.00063321757 -0.08614944 -0.073810354 0.08259632 0.17189871 -0.2254743
00000000: 0c0d cf3d 55c2 3b3e d3e6 973d 8117 6b3e
00000010: 5d14 803e e4fe 493e 02e0 12be d01b 813d
00000020: aa6c 9b3d f2ab eebb b330 c83c 05e0 1cbf
00000030: 4cf6 fbbe ebac 093a 0664 6cbd cbea 983d
00000040: 26b9 5c3e 2b74 143d 9938 1fbc e372 873d
00000050: f3de f3bc c955 c13c e803 d83d 0b04 1e3d
00000060: 04f6 3bbe e56f 09bd 52f9 efbd 3a39 adbe
00000070: dd9e 0cbf a40f a5be 1321 e23d 75b9 3a3e
00000080: 2505 ba3e 7fec 793e b46f f73d c59e dcbd
00000090: ab84 9f3c a3ab 583c 0bdf 29be 6464 1abd
000000a0: b3da 97bd 8a4c dcbe 5e54 32bf ac97 d8be
000000b0: c064 bc3d 3de8 6b3e 3ab3 76bc fd7b 93bd
000000c0: 0c97 95bd e2e7 31bd 014d 55bd 9890 2ebe
000000d0: 69c0 4e3e 8b1b 8dbc cb37 5e3d 1ec8 acbd
000000e0: 461f 3b3d bba4 353e 9066 debd 8a10 85be
000000f0: 22b5 86be 3992 99be abd0 cabe 53c5 3ebe
00000100: 1096 ec3d f022 833d 9483 943d 96f3 293d
00000110: a182 a9bd 5772 b63d f127 b43e 6aa5 9bbc
00000120: 60d7 81be cc16 883b 3cb1 863d 578d 873c
00000130: 5aba 0fbd ddbd 9f3d 11b8 b33d f2e4 8fbb
00000140: 79ea 833d e958 1b3a 1a36 a43e 1fee 7b3e
00000150: ef41 533e 9a1a eebd 8448 09bf 564c ecbe
00000160: 3d2c 2ebf b26e b4be 534c 0fbd 828b 563e
00000170: ca06 1b3d 07f4 4abe b855 c8be 8b5c 18bc
00000180: 4849 633d 52f3 bcbd da16 473d 0d32 ab3c
00000190: 5443 543d 68e8 223e c565 d83d 7b24 da3d
000001a0: 62cb a43d a1a7 89be 648e c6be 1ee4 b6be
000001b0: 5430 91be 94e7 f6be 4239 a5bd 7fdd a83d
000001c0: 8f0b bebc 92e9 bdbd 9ad4 dbbe 0fcf c4bc
000001d0: d230 713e d26b df3d 6564 623d 8453 3c3d
000001e0: 4ff1 8bbd c940 f4bd 5776 403c 4ddd 163c
000001f0: 0d0c 3dbe d1eb 66bd 7576 c4be 04fc 833e
00000200: 175e 27bd 7e58 c8bd b97f 333e ddf6 8fbe
00000210: 5956 683d db6a fa3c 3341 113e 7eec 20be
00000220: 3334 79be b7bc 9ebe 50dc c43c 23c8 073d
00000230: 9574 6e3c 5cc8 173d fe44 6ebe b7a8 cfbd
00000240: 79f2 78be a87c 3d3e e324 053e 8e48 a43d
00000250: d085 ebbc 3c8a 93be 78f9 623d 010e c6bd
00000260: a216 a3bd 93be e83a f212 9b3e aa72 a13d
00000270: 3116 a5bb 4a47 f03d 12da d73e b649 843d
00000280: af13 5cbe 3757 a6be a48e 99be fe33 a0be
00000290: 84df bebe ef62 63be 4419 24be 4617 473e
000002a0: 98b6 433e e5f9 5d3e 387e e93d 71c1 9b3d
000002b0: 1171 2abe 11c8 753d 5ec5 9c3d e3ee eb3c
000002c0: 2268 38be 6f5b 36bd abfc 1b3d 491e 19be
000002d0: 05c7 f33c e162 afbc 781b ad3d 7c49 943d
000002e0: 8c4a ec3d 2ad7 fe3c 67f3 ec3d 0cec 313e
000002f0: 5c9d 223e 4668 aa3d 9743 aabd 20e4 2f3c
00000300: e626 6abe 521b c4be c899 f6be 7cc3 23bf
00000310: 687a aabe 0958 7ebe f2dd 8f3d f7e2 3e3e
00000320: 7fc7 2cbd b300 8a3d ec8b 8d3d fc39 323e
00000330: 0f4d cc3d 73e8 663b bcf6 6f3d b8dd 9abe
00000340: 7dbe e53d 5140 783e fda5 adbd 0610 9dbe
00000350: 0208 eebe 8b65 90be 8a84 09bf b07a 2d3d
00000360: 58fe 0cbe cb6f d03c 9ec2 09be b91f 7e3e
00000370: 87f8 74bc d362 f53c 69aa 133e 3c80 203e
00000380: 1c22 633e 5722 0fbc c26e 4fbd 21c4 d8bc
00000390: bdae 673d c978 3ebd c474 353d d99d 8dbd
000003a0: 8834 713d b271 4dbd 1b9a c13e caa8 8d3e
000003b0: f66e 753e fff5 4fbb 82a4 4d3e e2f6 043e
000003c0: 2317 71bb 07a8 1abf 27ae 1dbf eca8 c1be
000003d0: 538a b6be d82c 1d3e 46be bf3d c4ff 993d
000003e0: 4ce0 fa3d a1c8 873d 83fe 25ba 1e6f b0bd
000003f0: e229 97bd 4228 a93d 3706 303e bce2 66be

net.4.bias f4 [16]
-0.12118915 -0.13793409 -0.16443151 -0.25527766 -0.25034386 -0.041836545 -0.26515752 -0.20268318
-0.08551792 -0.084915556 -0.19136031 -0.048673328 -0.14257072 0.051565476 -0.025906455 -0.18262683
00000000: 0432 f8bd 983e 0dbe bc60 28be c1b3 82be
00000010: 122d 80be cc5c 2bbd bac2 87be 2e8c 4fbe
00000020: 0524 afbd 35e8 adbd f5f3 43be af5d 47bd
00000030: 0ffe 11be 5236 533d c639 d4bc 8702 3bbe

net.8.weight f4 [120, 400]
-0.23930001 -0.15078664 0.20194073 -0.015208922 -0.04656651 0.07802301 0.18763149 0.124527596
-0.01777339 -0.44097114 -0.05991123 0.08460105 0.15638888 -0.12975033 -0.028114362 0.20956329
-0.04017801 -0.16785172 -0.45330676 -0.11563845 0.12545331 0.091028675 -0.12885582 -0.111088365
-0.02436737 0.11410471 0.15863626 -0.062665746 -0.06265257 0.07055429 0.00876683 0.22986174
-0.00095169555 0.2023749 -0.07885409 -0.42824844 0.0061776685 -0.3039119 -0.22609407 0.107303225
0.04174127 0.18881288 0.16658987 -0.1220463 -0.18704073 0.14921808 0.088844575 0.1636698
0.032221615 0.17348954 -0.24156326 -0.14716169 0.38426495 -0.4586671 -0.029538058 0.030655963
0.033355076 0.017606808 -0.30571428 0.022787903 0.018000858 0.038538452 0.028027304 0.37041616
0.02591866 0.17691228 0.10505805 0.2259103 0.29528013 -0.068537354 -0.021069037 -0.23181064
-0.32704479 0.083077185 -0.06786991 0.10358464 -0.024765639 -0.34505197 -0.35175702 -0.23443705
0.12303896 -0.1565159 -0.18598638 -0.24502511 -0.17093426 -0.021919176 0.07080269 -0.45189005
-0.06895224 0.09828725 -0.16486032 -0.12409133 -0.1620295 0.17146306 0.122516535 0.116217144
0.3268441 0.075790964 0.07584272 0.31342486 0.15097144 0.17869328 0.096182406 -0.04451829
-0.14490232 0.10486972 -0.010502308 0.031050771 -0.008199144 -0.05993816 0.0028260914 -0.106367566
0.041405797 0.302492 -0.13427804 -0.017650794 -0.078525856 -0.21110684 -0.061908405 -0.21018171
-0.13845225 -0.17392488 0.40152952 0.15309007 -0.009820432 -0.10169975 0.04462472 0.018483918
0.04740281 -0.16465749 -0.024444701 -0.23613234 0.032854166 -0.2059697 0.043227643 -0.062333252
-0.14123562 0.04550681 -0.07266888 0.086442694 -0.015469469 0.30971652 -0.03319817 -0.21753918
-0.4514092 0.13141082 0.34774435 -0.083404295 0.08657199 0.105533145 -0.13800485 -0.007164625
-0.0013943872 0.07135621 -0.06183776 0.07200644 -0.22303444 0.12211942 0.23286267 0.00069635763
0.31606433 0.055271406 -0.012253869 0.122209534 -0.20112029 -0.14418462 -0.10415194 -0.19816032
0.33806366 0.12729806 0.08823578 0.08161343 -0.14631405 -0.15749426 0.29229572 -0.04402217
-0.040781513 0.09705125 0.12090208 0.016729208 -0.08518883 -0.05019769 -0.0036406093 -0.11923111
-0.14273097 -0.1040671 0.06923952 -0.006193823 -0.3659568 -0.33991718 0.1752227 0.17290409
0.078519434 -0.13646339 -0.21326388 0.0028606656 -0.04576378 -0.0008074449 -0.042522226 0.18256414
0.18583758 0.06683859 0.00031336234 0.112020425 -0.042861827 -0.026693335 0.038361803 0.09408374
0.15734993 -0.14276335 -0.02313907 0.18408343 -0.20013481 -0.05235976 -0.22114106 0.07402565
0.24077554 -0.20183596 -0.3245422 -0.0005438355 -0.053474616 0.14002883 0.012908188 -0.10081858
0.18553731 -0.1919851 -0.14098668 0.018858107 0.0047500753 -0.35575104 0.060514905 -0.03630111
0.025330545 0.15643689 -0.061654054 0.016954243 -0.18575732 -0.031959318 -0.2555671 0.00601196
0.098398075 -0.16840975 0.123055875 0.06403677 0.12705454 -0.032793477 -0.109052464 -0.034309708
0.34675583 0.318337 -0.15134588 0.1223959 0.07931132 0.047255542 -0.02412893 0.11819498
00000000: 100b 75be d067 1abe 8dc9 4e3e d82e 79bc
00000010: 86bc 3ebd 87ca 9f3d 7822 403e 5308 ff3d
00000020: 8099 91bc f8c6 e1be 7a65 75bd 5143 ad3d
00000030: 6824 203e 45dd 04be 1750 e6bc c297 563e
00000040: b291 24bd 52e1 2bbe d317 e8be dad3 ecbd
00000050: d576 003e 3e6d ba3d c8f2 03be 4c82 e3bd
00000060: 149e c7bc bbaf e93d 8b71 223e e656 80bd
00000070: fe4f 80bd c57e 903d c0a2 0f3c e060 6b3e
00000080: 357b 79ba 5e3b 4f3e 417e a1bd 6143 dbbe
00000090: 0a6e ca3b 579a 9bbe 3485 67be cbc1 db3d
000000a0: e5f8 2a3d 2a58 413e 8996 2a3e 69f3 f9bd
000000b0: 9b87 3fbe a0cc 183e 25f4 b53d 0e99 273e
000000c0: d0fa 033d 3ea7 313e 5c5c 77be 8eb1 16be
000000d0: 60be c43e 6ad6 eabe ccf9 f1bc 3722 fb3c
000000e0: 559f 083d 273c 903c 9586 9cbe b2ad ba3c
000000f0: 8976 933c 7fda 1d3d 8499 e53c 30a7 bd3e
00000100: 5f53 d43c 7e28 353e ad28 d73d 0855 673e
00000110: f52e 973e 505d 8cbd f998 acbc c55f 6dbe
00000120: 6a72 a7be 5f24 aa3d 61ff 8abd 2f24 d43d
00000130: 4fe1 cabc a7aa b0be 7f19 b4be 4410 70be
00000140: dafb fb3d b445 20be 3773 3ebe dde7 7abe
00000150: 6409 2fbe d88f b3bc 0001 913d 225e e7be
00000160: d536 8dbd d34a c93d 25d1 28be 9823 febd
00000170: 10eb 25be 0394 2f3e f3e9 fa3d 4103 ee3d
00000180: 1c58 a73e 4b38 9b3d 6e53 9b3d 3979 a03e
00000190: 4298 1a3e 5ffb 363e 48fb c43d cf58 36bd
000001a0: 4661 14be f0c5 d63d df11 2cbc 305e fe3c
000001b0: b455 06bc b781 75bd f235 393b 3dd7 d9bd
000001c0: 2099 293d 3be0 9a3e 2f80 09be 6698 90bc
000001d0: 2ad2 a0bd 642c 58be ab93 7dbd e039 57be
000001e0: 6dc6 0dbe 5d19 32be 4795 cd3e a5c3 1c3e
000001f0: e1e5 20bc f547 d0bd 69c8 363d 966b 973c
00000200: 7329 423d f99b 28be 4140 c8bc adcc 71be
00000210: 1792 063d b9e9 52be 780f 313d 2751 7fbd
00000220: 12a0 10be 5965 3a3d 6cd3 94bd de08 b13d
00000230: a873 7dbc 2a93 9e3e cefa 07bd 97c2 5ebe
00000240: 1b1f e7be 8f90 063e 8c0b b23e dfcf aabd
00000250: a84c b13d c321 d83d 2551 0dbe 3bc5 eabb
00000260: dfc3 b6ba 3423 923d 9749 7dbd 1d78 933d
00000270: 2463 64be bf19 fa3d 8d73 6e3e c58b 363a
00000280: 2fd3 a13e 4564 623d 74c4 48bc fe48 fa3d
00000290: 7af2 4dbe 22a5 13be 9d4d d5bd 8aea 4abe
000002a0: ae16 ad3e 6c5a 023e f6b4 b43d f124 a73d
000002b0: 5ad3 15be 2d46 21be c9a7 953e 9750 34bd
000002c0: 840a 27bd cec2 c63d 829b f73d b10b 893c
000002d0: 7b77 aebd 189c 4dbd 4a97 6ebb 712f f4bd
000002e0: 1128 12be 2221 d5bd 73cd 8d3d 8ef5 cabb
000002f0: b15e bbbe a009 aebe 946d 333e c50d 313e
00000300: ccce a03d 0fbd 0bbe d961 5abe 017a 3b3b
00000310: cd72 3bbd b6aa 53ba c92b 2ebd 18f2 3a3e
00000320: 354c 3e3e ace2 883d c84a a439 f76a e53d
00000330: e28f 2fbd fbab dabc 4421 1d3d faae c03d
00000340: 5720 213e 8e30 12be 268e bdbc 5e80 3c3e
00000350: 24f0 4cbe 3077 56bd cd72 62be c39a 973d
00000360: dd8d 763e 16ae 4ebe 652a a6be 2f90 0eba
00000370: 3308 5bbd b863 0f3e dd7c 533c f979 cebd
00000380: 7efd 3d3e be97 44be d05e 10be 517c 9a3c
00000390: 85a6 9b3b 0025 b6be 7ade 773d 79b0 14bd
000003a0: 0182 cf3c fe30 203e f688 7cbd a0e3 8a3c
000003b0: 2b37 3ebe c6e7 02bd b1d9 82be faff c43b
000003c0: ee84 c93d 9b73 2cbe b804 fc3d b625 833d
000003d0: 961a 023e 7452 06bd e656 dfbd 5688 0cbd
000003e0: fb89 b13e 11fd a23e 6afa 1abe b4aa fa3d
000003f0: f96d a23d 078f 413d 09aa c5bc 3610 f23d

net.8.bias f4 [120]
-0.079578325 -0.16450253 0.03611929 -0.08366191 -0.019144874 -0.030576939 -0.0105599 0.14715004
0.21303308 0.03493416 -0.113970526 -0.029209053 -0.15064217 -0.02967659 -0.13384575 -0.0058190967
-0.07781404 -0.016490709 -0.06506615 -0.054844316 -0.06801521 -0.0665183 -0.076338604 -0.058668885
0.066576704 -0.004970267 0.022424633 0.08696779 -0.016732862 -0.20946601 -0.0011950864 0.019014038
-0.03821118 -0.16210078 0.10414934 -0.071238175 -0.21904583 -0.035634544 -0.08611774 0.12086057
-0.021299567 -0.06037767 0.15095922 0.097510524 -0.058164604 0.09598091 -0.0086435685 -0.060179338
0.10011523 0.046434417 0.008853163 -0.059955213 -0.0066455645 -0.17411782 -0.07682782 -0.07433043
-0.076241024 -0.08693689 -0.053815518 0.0205925 0.023043104 0.25436643 -0.04540885 -0.05008849
-0.15940702 0.15499058 -0.11839769 -0.06424166 0.1063937 -0.132037 0.0070956745 0.018670863
-0.065288715 -0.02664544 -0.11811197 -0.11586122 -0.023519611 0.0064026085 0.08394402 -0.059445675
-0.04289827 0.0900267 0.015442314 -0.010832538 -0.10444977 0.05669649 0.092923224 -0.025519677
-0.09330938 -0.042933583 -0.10014729 0.020319572 -0.012486126 0.023481065 -0.029034771 -0.0428329
0.006840216 -0.10476998 -0.04027266 -0.074632466 -0.051412806 -0.10579509 -0.007183761 -0.007386995
0.0801482 -0.12248583 0.026538398 -0.031030359 -0.019798169 -0.012429695 -0.01876469 -0.053429496
0.09558656 0.0019190073 -0.0501564 -0.11974218 -0.119156696 -0.12200723 0.054698844 -0.21665782
00000000: f6f9 a2bd 5a73 28be d2f1 133d ef56 abbd
00000010: b6d5 9cbc 7d7c fabc 6e03 2dbc 80ae 163e
00000020: 5825 5a3e 1f17 0f3d 6169 e9bd d347 efbc
00000030: f141 1abe 521c f3bc dc0e 09be 1fae bebb
00000040: f85c 9fbd 8617 87bc 6741 85bd 6fa4 60bd
00000050: 8f4b 8bbd bf3a 88bd 6a57 9cbd c94e 70bd
00000060: 5e59 883d 9fdd a2bb ddb3 b73c 2b1c b23d
00000070: 5b13 89bc 427e 56be 72a4 9cba 54c3 9b3c
00000080: 5483 1cbd bffd 25be 404c d53d 52e5 91bd
00000090: 8d4d 60be 87f5 11bd 7f5e b0bd bf85 f73d
000000a0: 6e7c aebc 934e 77bd 0e95 1a3e 99b3 c73d
000000b0: 023e 6ebd a491 c43d c19d 0dbc 9c7e 76bd
000000c0: 3709 cd3d 0432 3e3d db0c 113c 9993 75bd
000000d0: 09c3 d9bb f14b 32be e757 9dbd 8d3a 98bd
000000e0: 4124 9cbd f80b b2bd a96d 5cbd 9ab1 a83c
000000f0: e4c4 bc3c 513c 823e a1fe 39bd 9729 4dbd
00000100: 983b 23be dab5 1e3e 7d7a f2bd 2291 83bd
00000110: f1e4 d93d b534 07be d582 e83b a3f3 983c
00000120: 17b6 85bd 8a47 dabc b0e4 f1bd a648 edbd
00000130: 33ac c0bc f9cc d13b d8ea ab3d 4f7d 73bd
00000140: 19b6 2fbd eb5f b83d c201 7d3c f57a 31bc
00000150: c3e9 d5bd 943a 683d 884e be3d a40e d1bc
00000160: fd18 bfbd 20db 2fbd 061a cdbd 3b75 a63c
00000170: 9c92 4cbc 5d5b c03c 54da edbc 8d71 2fbd
00000180: e423 e03b a591 d6bd f2f4 24bd e8d8 98bd
00000190: 3c96 52bd 19ab d8bd c165 ebbb 9b0e f2bb
000001a0: bd24 a43d dad9 fabd 0e67 d93c 6133 febc
000001b0: c52f a2bc eba5 4bbc 68b8 99bc e3d8 5abd
000001c0: e3c2 c33d 3387 fb3a cc70 4dbd 633b f5bd
000001d0: 6d08 f4bd edde f9bd e50b 603d 8cdb 5dbe

net.10.weight f4 [84, 120]
-0.09494516 -0.42057583 -0.32155827 0.14269471 0.069594905 0.093736865 -0.042477846 -0.05805217
0.08129814 0.051592816 -0.055772092 0.058657214 -0.25604233 -0.31414798 -0.112703696 0.20477973
0.21683417 -0.081159756 0.1626835 -0.047365543 0.07267309 -0.18840687 -0.0153822 -0.16523275
-0.1662482 0.2306648 0.19922042 -0.13262835 0.250901 -0.04181332 0.34602654 0.008910269
0.062479436 -0.26052567 0.007334272 -0.043638993 0.02540811 0.18330257 0.13781175 0.01503511
0.055624474 0.19229305 -0.25817716 0.15257244 0.09967211 0.2588105 0.2503913 -0.027461996
-0.02196075 -0.037867453 -0.03114921 -0.07928886 0.08676896 0.19629523 -0.13539538 0.28492895
-0.030668687 0.033240415 -0.030296918 -0.20068048 0.22889851 0.0930882 0.066430725 -0.19504753
-0.13040857 -0.49102706 0.26432642 -0.22383563 0.08115414 -0.25822443 0.046339154 -0.08842102
-0.062665455 -0.151995 -0.07070344 -0.017520323 0.24996427 -0.025972547 -0.083419204 0.18215266
0.061020754 -0.19794482 0.09048175 0.13772751 -0.04224447 0.092265114 -0.22088191 0.09534416
-0.5298956 -0.19943136 0.019458381 -0.04989777 0.0059217224 0.023507098 -0.055178 -0.1002451
-0.017674202 -0.27759865 0.098691024 0.15531711 0.043482263 0.2819331 0.0013180027 0.018220026
0.15317765 -0.09749431 -0.0377369 0.031581316 0.10467025 -0.054961067 -0.0713007 -0.26241052
-0.14964393 0.022866813 0.056110937 0.052463677 0.26707977 0.10539409 0.15324603 -0.25292748
0.13482907 -0.18898351 -0.16127996 0.00015134578 -0.016516311 0.10096944 -0.057534017 -0.03487829
-0.19267721 0.043850742 0.057216015 0.04253257 0.27102873 -0.12584408 0.008493626 -0.11216143
0.2387025 -0.32875213 0.046623476 -0.08055784 0.08156576 0.028804239 -0.2069461 0.0063758614
0.025103983 0.028702416 0.09442599 -0.18132332 -0.090316 -0.01082548 0.08936115 -0.015380616
0.024640717 0.03065878 -0.11943588 0.044634897 -0.0982711 -0.23360959 0.0056272666 -0.11065843
-0.030194035 0.0751471 0.105289005 -0.058391888 -0.06549397 -0.21719696 0.10182738 0.050002854
0.09640865 0.065264456 -0.023488846 0.11382929 0.078636445 0.15646978 -0.28582716 -0.053635355
0.11638568 0.12258249 0.017591072 0.05362486 -0.3007568 -0.12693557 0.06249706 0.09565092
-0.23852745 -0.039060585 0.19777988 -0.10449099 -0.013835934 0.2501569 0.04198383 0.017152058
-0.06265499 -0.087718375 -0.15530331 0.082441024 0.16563895 -0.4626429 -0.22068752 0.070640594
-0.110249445 -0.14600785 0.029960131 -0.19897068 -0.04573021 -0.032219313 0.052001167 -0.0698334
-0.27114034 -0.05905204 -0.14261115 -0.04056526 0.05994575 -0.27479413 -0.083005026 -0.1340968
0.17564537 -0.1011284 0.01433812 -0.060629588 0.039155867 0.15359415 -0.06653143 0.026563074
-0.11401681 0.1252395 -0.013286594 -0.08598455 0.08334333 0.024840178 0.065812506 0.22086178
-0.24671426 0.04357821 -0.03018165 0.00734329 0.105398685 0.2622081 -0.0515351 -0.19791658
0.090513654 -0.10133819 -0.30333853 0.10698424 0.0013130554 0.048011944 0.15409201 -0.09851182
-0.04366467 0.23270683 -0.106453225 0.034958445 -0.20179631 0.05391921 -0.3351405 0.10865416
00000000: 9c72 c2bd b755 d7be 49a3 a4be 901e 123e
00000010: c687 8e3d 1df9 bf3d 40fd 2dbd 1dc8 6dbd
00000020: a47f a63d fd52 533d 4771 64bd 8c42 703d
00000030: fb17 83be 01d8 a0be 32d1 e6bd c7b1 513e
00000040: c709 5e3e 1637 a6bd 8196 263e 5f02 42bd
00000050: a1d5 943d bbed 40be 9f05 7cbc c632 29be
00000060: f83c 2abe 6533 6c3e 7000 4c3e bacf 07be
00000070: 1976 803e 7244 2bbd 642a b13e 60fc 113c
00000080: 70ea 7f3d 9f63 85be 5554 f03b cdbe 32bd
00000090: ab24 d03c abb3 3b3e 861e 0d3e d255 763c
000000a0: 7dd6 633d 78e8 443e cc2f 84be f33b 1c3e
000000b0: e420 cc3d cf82 843e 4a33 803e fbf7 e0bc
000000c0: 08e7 b3bc e71a 1bbd a12c ffbc 3362 a2bd
000000d0: edb3 b13d 9e01 493e 16a5 0abe 35e2 913e
000000e0: e63c fbbc 1a27 083d 3e31 f8bc 2f7f 4dbe
000000f0: 5f64 6a3e 07a5 be3d d50c 883d 8aba 47be
00000100: d389 05be e667 fbbe cb55 873e 2b35 65be
00000110: 2434 a63d fe35 84be 20ce 3d3d 1416 b5bd
00000120: bf56 80bd 94a4 1bbe f7cc 90bd c886 8fbc
00000130: a2f6 7f3e 61c4 d4bc b0d7 aabd 3a86 3a3e
00000140: e6f0 793d 0cb2 4abe 7f4e b93d 7108 0d3e
00000150: 8a08 2dbd 7ef5 bc3d de2e 62be cd43 c33d
00000160: 3da7 07bf bc37 4cbe 2f67 9f3c 9b61 4cbd
00000170: 020b c23b f591 c03c 5402 62bd 4e4d cdbd
00000180: 7dc9 90bc 6921 8ebe 851e ca3d 730b 1f3e
00000190: 751a 323d 8959 903e d5c0 ac3a 2a42 953c
000001a0: 9ada 1c3e 19ab c7bd 0292 1abd 695b 013d
000001b0: 5b5d d63d db1e 61bd 1a06 92bd ac5a 86be
000001c0: 423c 19be 2f53 bb3c 95d4 653d 27e4 563d
000001d0: aebe 883e dbd8 d73d 87ec 1c3e b67f 81be
000001e0: a210 0a3e e584 41be 9326 25be 93b2 1e39
000001f0: 374d 87bc 11c9 ce3d caa8 6bbd 8adc 0ebd
00000200: 2d4d 45be d69c 333d 575b 6a3d a236 2e3d
00000210: 47c4 8a3e 45dd 00be d928 0b3c e4b4 e5bd
00000220: 6e6e 743e 3352 a8be 42f8 3e3d 82fb a4bd
00000230: f30b a73d def6 eb3c aee9 53be 9aec d03b
00000240: dea6 cd3c 5421 eb3c 6a62 c13d d2ac 39be
00000250: 98f7 b8bd 5b5d 31bc fb02 b73d fbfe 7bbc
00000260: 54db c93c 1f28 fb3c cc9a f4bd 15d3 363d
00000270: 5c42 c9bd 5a37 6fbe ef64 b83b e3a0 e2bd
00000280: 7b59 f7bc b9e6 993d c3a1 d73d 552c 6fbd
00000290: b421 86bd e168 5ebe e08a d03d cbcf 4c3d
000002a0: e671 c53d 5fa9 853d ae6b c0bc 551f e93d
000002b0: 250c a13d 9d39 203e f057 92be bfb0 5bbd
000002c0: 9e5b ee3d 870c fb3d 271b 903c bea5 5b3d
000002d0: ccfc 99be 66fb 01be ebfc 7f3d a1e4 c33d
000002e0: 8a40 74be fefd 1fbd cf86 4a3e 5fff d5bd
000002f0: 1db0 62bc 9114 803e 3df7 2b3d 7982 8c3c
00000300: 4251 80bd b1a5 b3bd d507 1fbe d7d6 a83d
00000310: 429d 293e 88df ecbe e9fb 61be 04ac 903d
00000320: 76ca e1bd 1583 15be f36e f53c f8be 4bbe
00000330: 9a4f 3bbd 66f8 03bd 2dff 543d d004 8fbd
00000340: e8d2 8abe 8de0 71bd a808 12be c227 26bd
00000350: ad89 753d d1b1 8cbe 8afe a9bd ac50 09be
00000360: 61dc 333e 681c cfbd 6fea 6a3c bb56 78bd
00000370: e761 203d c947 1d3e a141 88bd ce9a d93c
00000380: a581 e9bd c93e 003e 04b0 59bc ab18 b0bd
00000390: e8af aa3d a17d cb3c b5c8 863d 9729 623e
000003a0: aaa2 7cbe 117f 323d 823f f7bc fb9f f03b
000003b0: 44db d73d 2440 863e 7816 53bd a5aa 4abe
000003c0: 395f b93d 668a cfbd 304f 9bbe 8e1a db3d
000003d0: d41a ac3a 2ca8 443d 4cca 1d3e 91c0 c9bd
000003e0: bad9 32bd b34a 6e3e 2604 dabd 9630 0f3d
000003f0: b1a3 4ebe 64da 5c3d 8997 abbe 1286 de3d

net.10.bias f4 [84]
0.041795045 0.0077485554 0.029931111 0.010916676 -0.093849525 -0.16872106 0.18275726 0.064035654
0.032109 0.026621262 -0.0022388403 0.13286163 0.00033151472 -0.12837678 0.03545316 -0.08206319
0.036032986 -0.016280364 0.11779073 -0.20852818 0.17957623 0.15434209 -0.0002353148 -0.011362883
-0.12093531 -0.15133813 -0.033586774 -0.17127691 0.0402721 -0.074235134 0.07504178 -0.027855221
-0.14615567 0.0527845 -0.06804389 -0.046743743 0.22108434 0.14942046 -0.15797144 -0.041897606
0.0987497 -0.20089528 -0.027033763 0.059352774 -0.1173193 -0.22072232 0.0400825 0.00424295
-0.16383336 0.15992768 -0.1378329 -0.06636805 -0.11567906 -0.016296312 -0.14149384 -0.07706903
-0.07806368 0.027159214 0.0093321595 0.055290412 -0.111329556 0.010241056 -0.10302041 -0.17089573
0.13086593 0.031921912 -0.19052672 -0.2984815 -0.05302486 -0.11722297 0.0169939 -0.044847608
-0.015859336 -0.1870434 -0.047110807 -0.0840221 0.19279598 -0.086613104 -0.053387064 0.055755213
-0.009524215 -0.2758324 0.08211481 -0.051178128
00000000: 4831 2b3d 98e7 fd3b 1732 f53c dcdb 323c
00000010: 2e34 c0bd 37c5 2cbe b824 3b3e 2025 833d
00000020: ba84 033d d514 da3c 82b9 12bb e10c 083e
00000030: 27cf ad39 3475 03be 5537 113d bf10 a8bd
00000040: 5397 133d 665e 85bc 443c f13d 6988 55be
00000050: d5e2 373e da0b 1e3e d6be 76b9 632b 3abc
00000060: efac f7bd 62f8 1abe 4992 09bd 3763 2fbe
00000070: 5cf4 243d 9708 98bd 81af 993d a230 e4bc
00000080: d5a9 15be 8f34 583d 985a 8bbd 5e76 3fbd
00000090: ef63 623e ad01 193e 44c3 21be d39c 2bbd
000000a0: 483d ca3d 7eb7 4dbe e975 ddbc e51b 733d
000000b0: 1a45 f0bd 0805 62be 8c2d 243d 7208 8b3b
000000c0: efc3 27be 15c4 233e 1124 0dbe f9eb 87bd
000000d0: 25e9 ecbd d87f 85bc c3e3 10be 5ed6 9dbd
000000e0: dadf 9fbd 007d de3c eae5 183c 3378 623d
000000f0: c000 e4bd 1aca 273c 5dfc d2bd 4aff 2ebe
00000100: b801 063e 8dc0 023d 7019 43be 91d2 98be
00000110: 9830 59bd 9912 f0bd cb36 8b3c 20b2 37bd
00000120: 70eb 81bc 4e88 3fbe 43f7 40bd c713 acbd
00000130: 4f6c 453e 3662 b1bd 65ac 5abd 945f 643d
00000140: 740b 1cbc e839 8dbe cf2b a83d 28a0 51bd

net.12.weight f4 [10, 84]
-0.25943428 -0.067244366 0.022802701 -0.12587833 0.15014662 -0.17351541 -0.10183028 0.05146616
-0.29604235 0.18359435 0.23397322 0.10438081 0.041530088 -0.09943331 0.23410988 -0.16213179
0.02566529 -0.15444818 -0.072598785 -0.12709077 -0.23379399 0.16380522 0.16878137 -0.3336237
-0.0063575534 0.0065816264 0.16261841 -0.3130036 0.19979176 -0.259334 -0.04736851 -0.17971289
-0.31229168 0.19230556 -0.109236926 -0.136963 -0.34438893 -0.30377513 0.02062577 -0.014339329
-0.19737981 0.021706019 0.08308877 -0.08695854 0.080565214 0.014240307 0.10036923 0.23279989
-0.102232195 -0.1830052 -0.4107256 -0.28244916 -0.023302572 0.08206977 -0.21751638 -0.41179568
-0.310772 -0.13409798 -0.35732308 -0.116357274 -0.3525591 0.052350026 -0.1210041 -0.022574285
-0.0912345 -0.40734997 -0.016577864 -0.01652168 -0.23955983 -0.058747362 0.07895696 -0.32075346
0.10273831 -0.2719026 -0.090736315 -0.15957966 -0.21427263 0.20406313 -0.3607911 0.013217772
0.17063442 -0.50854856 -0.09213559 -0.088601165 -0.0632146 -0.056420635 0.12957934 -0.13762996
-0.42824733 -0.110056296 -0.32278356 0.03573792 0.1175046 -0.2412945 0.21293424 -0.17463438
-0.0696464 0.090327024 -0.19986367 0.022489604 -0.23642078 -0.18231301 -0.36449757 0.0022211743
-0.28561297 -0.23876241 0.24140385 0.097643666 0.17751093 -0.19281778 -0.13615617 0.045338698
0.14936669 0.16792978 -0.09865236 0.03722051 0.097284704 -0.16705364 -0.036808997 0.14494242
0.17295977 -0.0008754715 0.116561875 0.05285222 0.13215448 0.12275068 0.1855277 -0.30531046
-0.003994496 -0.21602565 -0.2909699 0.0028085154 -0.34796348 -0.24123895 0.02431077 0.07268701
-0.015627641 -0.00035771736 0.092483655 0.053975206 -0.32045344 0.013828352 0.12121811 -0.16567071
0.112831205 -0.2780674 -0.1169092 -0.11094994 -0.32960838 0.05104476 -0.17664543 0.029174699
-0.19162896 0.055862263 -0.21524678 -0.02243827 -0.031831067 0.30700225 -0.11507934 -0.050180458
0.072551936 -0.3276141 -0.012147058 -0.006051777 -0.17158534 0.12589821 -0.32763785 -0.20665064
0.0760193 -0.29981595 0.113723874 0.107201196 -0.3488013 -0.15727063 -0.314529 0.17994408
0.090793625 0.11036979 0.093030885 0.11246953 0.040894605 -0.0023151352 -0.21816523 0.029236065
-0.11382751 -0.054310635 -0.014121865 0.101706676 -0.031147212 0.067274325 -0.2781857 -0.12267591
0.14994808 -0.1451788 0.06989344 -0.021522436 -0.13787192 0.00042129736 -0.12950876 0.022802578
0.14340398 0.124382846 -0.099210665 0.052114833 -0.25994536 -0.3667691 -0.27747893 -0.021180378
-0.3611585 -0.20863527 -0.124983855 0.017997824 -0.2904373 0.12842527 -0.37027976 0.13049503
-0.20586753 -0.10853822 -0.38592148 0.16327086 -0.06529276 -0.010466103 -0.09950233 0.015524549
0.15037598 0.102911085 0.0030785596 0.07511328 -0.32856604 0.03280646 -0.026708156 0.16285196
0.08608621 -0.07177201 0.06636131 -0.31738815 -0.28427342 0.012210617 -0.04406419 -0.13833824
0.09194706 -0.06268942 0.040357705 0.040606048 -0.049350522 -0.038931195 0.09714791 0.03181804
-0.13769971 0.053135663 -0.17495419 0.12604985 0.016480403 0.05067732 -0.20529035 0.12599903
00000000: 92d4 84be 6ab7 89bd bbcc ba3c 40e6 00be
00000010: 09c0 193e 06ae 31be 658c d0bd 2ece 523d
00000020: dd92 97be 2800 3c3e ad96 6f3e 9bc5 d53d
00000030: 741b 2a3d b1a3 cbbd 80ba 6f3e e005 26be
00000040: 0440 d23c aa27 1ebe acae 94bd 1524 02be
00000050: b167 6fbe 8ebc 273e 06d5 2c3e bad0 aabe
00000060: 0653 d0bb afaa d73b 7185 263e 0242 a0be
00000070: 3696 4c3e 6dc7 84be 7c05 42bd a806 38be
00000080: b2e4 9fbe c0eb 443e 9cb7 dfbd 0740 0cbe
00000090: bf53 b0be 6a88 9bbe 60f7 a83c 81ef 6abc
000000a0: ef1d 4abe d2d0 b13c 722a aa3d 5217 b2bd
000000b0: 60ff a43d 2d50 693c 628e cd3d 1863 6e3e
000000c0: 1d5f d1bd b765 3bbe a04a d2be 2d9d 90be
000000d0: 09e5 bebc 3214 a83d 9dbc 5ebe e2d6 d2be
000000e0: 821d 9fbe fb50 09be 0df3 b6be b94c eebd
000000f0: a082 b4be fb6c 563d ffd0 f7bd b5ed b8bc
00000100: 27d9 babd 2d90 d0be 4dce 87bc 7958 87bc
00000110: 2c4f 75be 13a1 70bd 30b4 a13d cc39 a4be
00000120: 7768 d23d d136 8bbe f6d3 b9bd da68 23be
00000130: 496a 5bbe edf5 503e 9cb9 b8be 5b8f 583c
00000140: caba 2e3e 3d30 02bf 96b1 bcbd 8774 b5bd
00000150: a876 81bd 5319 67bd 72b0 043e deee 0cbe
00000160: 3c43 dbbe 3265 e1bd e343 a5be ed61 123d
00000170: 40a6 f03d e815 77be 6f0b 5a3e 5bd3 32be
00000180: c6a2 8ebd 60fd b83d 10a9 4cbe 1e3c b83c
00000190: 4a18 72be 43b0 3abe 6d9f babe 1f91 113b
000001a0: dd3b 92be 227e 74be 9232 773e 67f9 c73d
000001b0: 6dc5 353e 0672 45be 866c 0bbe 12b5 393d
000001c0: 95f3 183e c9f5 2b3e 400a cabd 8974 183d
000001d0: 343d c73d 1c10 2bbe 08c5 16bd c96b 143e
000001e0: 5e1c 313e e67f 65ba feb7 ee3d 927b 583d
000001f0: 8153 073e b564 fb3d f9fa 3d3e a751 9cbe
00000200: 43e4 82bb d435 5dbe 02fa 94be 120f 383b
00000210: 4528 b2be 5807 77be 6127 c73c eddc 943d
00000220: 8a05 80bc 038c bbb9 1268 bd3d 1b15 5d3d
00000230: 7912 a4be 5090 623c 3341 f83d 95a5 29be
00000240: 0c14 e73d da5e 8ebe 176e efbd b939 e3bd
00000250: 6ec2 a8be 4f14 513d 8ae2 34be c7ff ee3c
00000260: 623a 44be d4cf 643d a769 5cbe 76d0 b7bc
00000270: 4b61 02bd 662f 9d3e b8ae ebbd 068a 4dbd
00000280: 1c96 943d 09bd a7be 7404 47bc fc4d c6bb
00000290: 11b4 2fbe 76eb 003e 26c0 a7be 3a9c 53be
000002a0: 02b0 9b3d 7a81 99be 10e8 e83d 4d8c db3d
000002b0: 1696 b2be 8d0b 21be f209 a1be 4343 383e
000002c0: 02f2 b93d 8e09 e23d fa86 be3d 6d56 e63d
000002d0: 1a81 273d 86b9 17bb b566 5fbe 7980 ef3c
000002e0: 661e e9bd d474 5ebd 655f 67bc 974b d03d
000002f0: 7028 ffbc 1fc7 893d 5b6e 8ebe 823d fbbd
00000300: fd8b 193e c0a9 14be 4b24 8f3d d24f b0bc
00000310: 4c2e 0dbe 93e1 dc39 f29d 04be 79cc ba3c
00000320: 7ed8 123e 6fbc fe3d f62e cbbd 5d76 553d
00000330: 8f17 85be 29c9 bbbe b811 8ebe 7982 adbc
00000340: c4e9 b8be 7ca4 55be 89f7 ffbd 2c70 933c
00000350: 33b4 94be ea81 033e 4f95 bdbe 7da0 053e
00000360: f0ce 52be 4949 debd 8097 c5be 7a30 273e
00000370: 36b8 85bd 057a 2bbc e1c7 cbbd ae5a 7e3c
00000380: 29fc 193e 0cc3 d23d a9c1 493b fed4 993d
00000390: cf39 a8be 1160 063d 10cb dabc aac2 263e
000003a0: f84d b03d 34fd 92bd 70e8 873d b380 a2be
000003b0: 498c 91be 0a0f 483c a77c 34bd 8aa8 0dbe
000003c0: bd4e bc3d 5063 80bd 1f4e 253d 8752 263d
000003d0: c623 4abd 5176 1fbd 7cf5 c63d a253 023d
000003e0: 2701 0dbe c8a4 593d 3127 33be 3613 013e
000003f0: e901 873c 0693 4f3d a237 52be e405 013e

net.12.bias f4 [10]
-0.1519473 -0.038824756 -0.064577825 0.0031565153 0.024157735 -0.06435418 0.026971333 -0.106442966
0.25018844 0.028580556
00000000: 1398 1bbe b506 1fbd 6141 84bd 8add 4e3b
00000010: 71e6 c53c 20cc 83bd fcf2 dc3c c5fe d9bd
00000020: b318 803e c521 ea3c
