handwrittenDigitRecognition/result/LeNetModel_1.pth (torch, 250686 bytes, 10 tensors)

net.1.weight f4 [6, 1, 5, 5]
0	0x3b09fd77	0.0021055618
1	0xbe752cb3	-0.23942833
2	0xbdcd3ce1	-0.10021377
3	0x3d660f90	0.056167185
4	0x3da52b19	0.08064861
5	0xbea85c0c	-0.32882726
6	0xbd912a9b	-0.070882045
7	0x3d3474ba	0.04405663
8	0xbd37f120	-0.04490769
9	0x3e055739	0.13021554
10	0xbd8b8035	-0.06811563
11	0x3e253185	0.16132171
12	0x3e135958	0.1438955
13	0x3e212a74	0.15738851
14	0x3e520056	0.2050794
15	0x3e1cd496	0.1531547
16	0x3ec62f3c	0.38707912
17	0xbdfc6759	-0.123243995
18	0xbd9d42bc	-0.07678744
19	0x3dac51c3	0.08414032
20	0x3e3decb7	0.18547331
21	0xbea996d6	-0.3312289
22	0xbe2037d3	-0.15646295
23	0x3d22caff	0.039744373
24	0x3e0d4baa	0.13798395
25	0x3dffad1e	0.12484191
26	0xbc853e31	-0.016265007
27	0xbdc6bcfc	-0.09704015
28	0x3e4da1be	0.20081231
29	0x3b53ce95	0.0032319177
30	0x3c565bc7	0.013083405
31	0xbdd413ac	-0.103553146
32	0x3e26f132	0.16302946
33	0xbd62db46	-0.055384897
34	0xbdc62ef1	-0.09676922
35	0x3e023338	0.12714851
36	0xbe16b0d3	-0.1471589
37	0x3e648b46	0.22318754
38	0x3e43bc0d	0.19114704
39	0xbe533be5	-0.20628317
40	0x3e1951fa	0.14972678
41	0xbd4041d1	-0.046937767
42	0xbd7f4591	-0.062322203
43	0x3e2ae2a1	0.16688015
44	0xbedbd86c	-0.42938554
45	0x3e3c01ee	0.18360111
46	0xbe7321ea	-0.23743406
47	0xbdff1d80	-0.124567986
48	0x3e1b4636	0.15163502
49	0xbd1e42b7	-0.038637843
50	0x3d90fe00	0.07079697
51	0x3e33c26d	0.17554636
52	0xbeb0e700	-0.3455124
53	0xbebb1f27	-0.36547205
54	0xbec4792d	-0.383737
55	0xbe4f5ded	-0.20250674
56	0x3e657561	0.22408058
57	0x3e2d9766	0.16952285
58	0x3cd7fb09	0.02636482
59	0xbf0ec411	-0.55767924
60	0xbd4f3f08	-0.05059722
61	0x3dca19cf	0.09868204
62	0x3e3f787d	0.18698306
63	0x3f0a0637	0.53915733
64	0x3d842510	0.064523816
65	0xbebd6b83	-0.36996087
66	0x3cde2518	0.027117297
67	0xbe1764e1	-0.14784576
68	0x3d52e533	0.051488113
69	0x3dbdd421	0.09268976
70	0x3e574b93	0.21024923
71	0x3d85de09	0.065364905
72	0xbe003f08	-0.12524045
73	0x3db538ec	0.088487476
74	0x3d5a1b5c	0.05324875
75	0x3db912e5	0.09036807
76	0xbe001f26	-0.12511882
77	0x3dc812b5	0.09769193
78	0xbe9580b3	-0.29199752
79	0xbeacd832	-0.33758694
80	0xbc0109a4	-0.007875834
81	0xbe12a8d2	-0.14322212
82	0xbe6779f9	-0.22605123
83	0xbe606f2b	-0.21917407
84	0x3de52ce4	0.11190203
85	0x3cb8e147	0.022568358
86	0x3e802327	0.2502682
87	0xbde02a94	-0.10945621
88	0xbb3d78a7	-0.0028911026
89	0x3e1f69e0	0.15567732
90	0x3df1a170	0.1179837
91	0x3ef075d3	0.46964893
92	0x3e8add4a	0.27121955
93	0x3d833aaa	0.06407674
94	0x3e587f7e	0.21142384
95	0xbe81d5f9	-0.2535856
96	0xbde592f9	-0.112096734
97	0x3e43cd59	0.19121303
98	0x3dbfbf68	0.0936268
99	0xbdbdd1a2	-0.092685
100	0x3e0548e0	0.13016081
101	0x3b7a08d1	0.0038152228
102	0x3e9f2d44	0.31089222
103	0x3e811a4b	0.25215372
104	0x3e3980d9	0.18115558
105	0x3e883a31	0.26606897
106	0x3e8f04df	0.27933404
107	0x3da761ed	0.08172975
108	0x3e62b235	0.22138293
109	0x3d517a83	0.051142227
110	0xbe4d1593	-0.20027761
111	0xbe1c278f	-0.15249465
112	0xbe35d7d8	-0.17758119
113	0xbe1a0a4f	-0.15042995
114	0x3e62a4da	0.22133198
115	0xbf191229	-0.59793335
116	0xbeb708bb	-0.35748848
117	0xbedc846e	-0.43069786
118	0xbe9a587b	-0.3014563
119	0xbc7e07d1	-0.015504793
120	0x3d44c048	0.048034936
121	0x3d1ec021	0.038757447
122	0xbca9e433	-0.020738697
123	0x3b433bea	0.002979035
124	0xbd5de4ff	-0.054173466
125	0x3d4f1438	0.05055639
126	0xbe91463b	-0.28373894
127	0xba76aea5	-0.00094101793
128	0x3cf10318	0.02942042
129	0x3e4117d2	0.18856743
130	0xbe8cd1ca	-0.27503806
131	0xbe9de82c	-0.30841196
132	0x3df2f310	0.11862767
133	0x3dd81a23	0.1055186
134	0x3e922b57	0.2854869
135	0xbe9a0a1e	-0.30085844
136	0xbe545a3a	-0.20737544
137	0x3d4a0e1a	0.049329855
138	0x3ead3417	0.33828804
139	0x3c5f6f51	0.01363738
140	0xbe5cca98	-0.21561658
141	0xbcaa9aac	-0.020825706
142	0x3ead4e4c	0.33848798
143	0x3e80ebfa	0.25180036
144	0xbe0faf26	-0.14031658
145	0xbda0ba62	-0.0784805
146	0x3d3b57c6	0.045738004
147	0x3d9f330d	0.07773409
148	0x3d2247d7	0.039619293
149	0xbeb1e857	-0.34747574

net.1.bias f4 [6]
0	0xbf095dd3	-0.5365879
1	0xbf0add71	-0.5424414
2	0xbe645309	-0.222973
3	0xbe237fa3	-0.15966658
4	0xbca9b8ee	-0.020718064
5	0xbe8c1cb2	-0.27365643

net.4.weight f4 [16, 6, 5, 5]
0	0x3d518ce4	0.051159754
1	0xba39aec4	-0.0007083232
2	0x3d0fb8b2	0.03508825
3	0x3e38f569	0.18062367
4	0x3c0717c7	0.008245415
5	0x3ddaf3d5	0.106910385
6	0x3e19dab2	0.15024832
7	0xbdc49b91	-0.095999844
8	0x3e4a70c0	0.19769573
9	0xbe39308f	-0.1808493
10	0x3e533e30	0.20629191
11	0x3e26966d	0.1626832
12	0xbe35462c	-0.1770255
13	0xbe0d4dc2	-0.13799194
14	0x3d13e23c	0.036104426
15	0xbd26bd88	-0.040708095
16	0x3e49d5f9	0.1971053
17	0x3e763e68	0.24047244
18	0xbebac06f	-0.3647494
19	0xbd11f5e7	-0.0356349
20	0x3d78b308	0.060717613
21	0x3e83b980	0.25727463
22	0x3e5e01a7	0.21680318
23	0xbe422e2a	-0.18962923
24	0xbe15cb44	-0.14628321
25	0xbef53328	-0.47890592
26	0x3cf461cb	0.029831788
27	0xbdfebdc4	-0.12438539
28	0x3e13daa0	0.14438868
29	0x3d8daeff	0.069181435
30	0xbe19e6bb	-0.15029423
31	0xba5c8e8e	-0.0008413576
32	0x3e903841	0.28167918
33	0xbc47d395	-0.012196441
34	0x3d00519c	0.03132783
35	0xbe6f1838	-0.23349082
36	0x3da990fc	0.08279607
37	0x3e529afd	0.20566936
38	0xbe340a1f	-0.17581986
39	0x3e0de5b9	0.13857163
40	0xbf0f97e1	-0.56091124
41	0x3e2e73eb	0.17036407
42	0x3de9dc32	0.11418952
43	0x3d16bb9f	0.036800023
44	0x3db0d4f0	0.086343646
45	0xbf0695ea	-0.525725
46	0xbddfc7c7	-0.109267764
47	0x3ce3df01	0.027816297
48	0xba7dcfa5	-0.00096821255
49	0x3d309d4f	0.04311877
50	0xbe81c602	-0.2534638
51	0xbe0ba021	-0.13635303
52	0xbc696623	-0.014245543
53	0xbe0cbe0f	-0.13744377
54	0x3e0f0107	0.13965236
55	0x3c227ba3	0.009917173
56	0xbdedc9b8	-0.116107404
57	0xbdd11426	-0.10208921
58	0x3d73ef67	0.059554484
59	0x3deb3c48	0.11486107
60	0xbec7a198	-0.38990474
61	0x3df6e61f	0.12055611
62	0x3ef7244c	0.4826988
63	0x3e033f7c	0.12817186
64	0xbdbc3e8b	-0.091916166
65	0xbedbf95d	-0.42963687
66	0xbe8a4b3b	-0.2701052
67	0x3e4e0403	0.20118718
68	0x3e694a78	0.22782314
69	0xbe8c95f5	-0.27458158
70	0xbd9d027e	-0.07666491
71	0xbeafa37a	-0.3430441
72	0x3c62ecff	0.01385045
73	0xbdce1f00	-0.100645065
74	0xbeb0d5b5	-0.34538046
75	0xbd37fe3b	-0.044920187
76	0xbd166f7e	-0.03672742
77	0x3e078691	0.13234927
78	0xbdc51779	-0.09623618
79	0x3d8ebafa	0.06969257
80	0xbe0a9438	-0.13533103
81	0x3e3c4545	0.18385799
82	0x3e1cdafe	0.15317914
83	0x3ceccd19	0.028906392
84	0xbda272dd	-0.07932065
85	0xbea50510	-0.32230425
86	0xbd73cd90	-0.05952221
87	0x3e4966ae	0.19668075
88	0x3ee4685f	0.4461088
89	0xbdd55dd3	-0.10418286
90	0xbe9aa3d1	-0.30203107
91	0xbe833072	-0.25622898
92	0x3e1d8c43	0.15385537
93	0x3e248ffa	0.16070548
94	0xbe0ed871	-0.13949753
95	0x3d8b9313	0.068151616
96	0x3bacb042	0.005270035
97	0xbd6b0207	-0.05737498
98	0x3cc146f4	0.023593403
99	0xbda9c4bd	-0.08289478
100	0x3d123597	0.03569564
101	0xbd572cd5	-0.05253299
102	0xbe2bc045	-0.16772564
103	0x3df37451	0.1188742
104	0x3df66ea3	0.12032821
105	0x3d2890cb	0.04115371
106	0xbebceb86	-0.3689844
107	0xbf048c78	-0.5177684
108	0x3c9ba9e6	0.019001912
109	0x3e36dcb3	0.17857628
110	0x3c8a453c	0.016878717
111	0x3d80c511	0.062875874
112	0xbf3c845d	-0.7363947
113	0xbf3d3d68	-0.73921824
114	0xbe865a4a	-0.2624076
115	0x3e30d6ef	0.1726949
116	0x3b0ba533	0.0021308183
117	0xbe18fce9	-0.14940228
118	0xbe8c5a69	-0.27412727
119	0xbd496112	-0.04916484
120	0xbda3c396	-0.079962894
121	0x3d8ee83e	0.069778904
122	0x3d263030	0.0405733
123	0xbe5a5efc	-0.21325296
124	0xbe55ed79	-0.2089137
125	0x3d4a0277	0.049318757
126	0x3d5891d0	0.052873433
127	0x3e8ff3c5	0.2811567
128	0xbd4d23bc	-0.050082907
129	0xbd91445f	-0.07093119
130	0x3e3e5eac	0.18590802
131	0x3990c6e8	0.00027614017
132	0x3e4030cd	0.18768616
133	0xbdd9b836	-0.106308386
134	0x3d0f60a3	0.03500427
135	0x3d906c47	0.07051902
136	0xbe251f67	-0.1612526
137	0xbd007fa0	-0.031371713
138	0xbe834ae7	-0.25643083
139	0x3e46eac3	0.19425492
140	0xbdf51c49	-0.119682856
141	0x3d314b4f	0.04328471
142	0xbdbe9422	-0.09305598
143	0xbe9ffc26	-0.31247061
144	0xba840caa	-0.0010074575
145	0xbe0d69d1	-0.13809897
146	0xbd7a08c9	-0.061043534
147	0x3e3c3afa	0.18381873
148	0xbdfebad2	-0.12437977
149	0xbed6ad8f	-0.4192929
150	0xbe0a1ee2	-0.13488343
151	0x3d4bd205	0.049760837
152	0xbd7b9667	-0.06142273
153	0x3baac4c5	0.005211445
154	0x3d36e69b	0.044653516
155	0xbde4b736	-0.11167757
156	0xbddcccbb	-0.10781237
157	0x3d3bfe1d	0.04589664
158	0x3ddfa142	0.10919429
159	0xbd8d210e	-0.0689107
160	0x3cab819e	0.02093583
161	0x3c34f5f3	0.011044967
162	0x3df660c1	0.12030173
163	0x3cf960f9	0.030441748
164	0xbde5f98d	-0.11229239
165	0x3db9cac3	0.09071877
166	0xbdbf765a	-0.09348746
167	0xbe435e0a	-0.19078842
168	0x3e77731a	0.24165002
169	0xbedc0c1a	-0.42977983
170	0x3d7dbaa2	0.061945565
171	0xbf02f4f3	-0.5115501
172	0xbeef6d6e	-0.46763176
173	0x3e92be6a	0.286609
174	0x3cc3e3d9	0.023912357
175	0xbe2ec98e	-0.17069075
176	0xbe84c467	-0.25931093
177	0xbe2128ab	-0.1573817
178	0xbe9948d9	-0.2993839
179	0x3e1768e9	0.14786114
180	0xbeb72701	-0.35771945
181	0xbeb821cd	-0.35963288
182	0x3d533a43	0.051569235
183	0x3d8c15df	0.06840109
184	0xbdd40d21	-0.10354067
185	0x3d5d2f7e	0.05400037
186	0xbd9ba063	-0.07598951
187	0xbc604100	-0.013687372
188	0xbd1d1854	-0.03835328
189	0x3dd9782d	0.10618625
190	0x3dfd2128	0.1235984
191	0x3da0c296	0.07849614
192	0xbce99826	-0.028514933
193	0x3e0e932c	0.13923329
194	0x3db8891e	0.09010528
195	0xbe06ce4c	-0.13164634
196	0x3d397fb6	0.04528781
197	0xbe1135fa	-0.14180747
198	0x3e0ab0ca	0.13544002
199	0xbd7b03ec	-0.061283037
200	0xbe5cdec1	-0.21569349
201	0xbddf7f03	-0.109128974
202	0x3df1fea5	0.11816148
203	0x3e9d7077	0.30749866
204	0x3ea38418	0.31936717
205	0x3e5cdf71	0.21569611
206	0xbe170e8e	-0.14751646
207	0x3caeecb8	0.02135311
208	0xbc7db396	-0.015484711
209	0xbe06a336	-0.13148198
210	0xbd4f05a4	-0.05054249
211	0xbd17780a	-0.036979713
212	0xbe4daa25	-0.20084436
213	0x3e8587f0	0.26080275
214	0xbe382768	-0.17983782
215	0xbee8531f	-0.45375916
216	0xbe375f5a	-0.17907467
217	0xbe137a20	-0.14402056
218	0x3db32af6	0.087484285
219	0x3d8f02a3	0.06982925
220	0x3ec47069	0.38367012
221	0x3ea13634	0.31486666
222	0xbe517f56	-0.20458731
223	0xbead26aa	-0.3381856
224	0x3ece35c4	0.40275395
225	0xbc1efc3e	-0.009703694
226	0xbb90ab3f	-0.0044149454
227	0xbc2ea7ec	-0.010660153
228	0x3e00c1d8	0.12573946
229	0x3dad2626	0.08454542
230	0x3e7bb507	0.24580775
231	0x3e3ea8b2	0.1861904
232	0xbd3d8dd0	-0.04627782
233	0xbcda27b4	-0.02663026
234	0x3d2677d4	0.04064162
235	0x3d2f3c5d	0.042782176
236	0xbe8b694b	-0.2722877
237	0xbecd4064	-0.4008819
238	0xbbd3b9eb	-0.006461372
239	0x3e4440de	0.1916537
240	0xbee87135	-0.4539887
241	0xbd6f7a98	-0.058466524
242	0xbeb6717b	-0.35633454
243	0xbf452ac0	-0.77018356
244	0x3de8e202	0.113712326
245	0xbe25cc4d	-0.16191216
246	0x3d976b71	0.0739354
247	0x3e2e3a31	0.17014386
248	0xbf0c9e05	-0.5492862
249	0xbd7d2576	-0.061803304
250	0xbf13f4b2	-0.5779525
251	0xbef92080	-0.48657608
252	0xbe4e7276	-0.20160851
253	0xbec0ad7a	-0.37632352
254	0xbe86347b	-0.26211914
255	0xbd59b746	-0.0531533

net.4.bias f4 [16]
0	0xbe8da5f2	-0.2766567
1	0xbe6bb826	-0.23019466
2	0xbe058299	-0.130381
3	0xbe4e7648	-0.20162308
4	0xbdee0232	-0.116215125
5	0xbd442088	-0.047882587
6	0xbd161824	-0.036644116
7	0xbe618dab	-0.22026698
8	0xbdd2345a	-0.102638915
9	0xbe519882	-0.20468333
10	0xbe143fca	-0.14477459
11	0xbdc96ab0	-0.09834802
12	0xbe0a57ff	-0.1351013
13	0xbd910d22	-0.07082583
14	0xbd5fc64f	-0.05463248
15	0xbda45b08	-0.08025175

net.8.weight f4 [120, 400]
0	0x3ca6092e	0.02026805
1	0x3cce3a27	0.025174214
2	0x3e3eaeb6	0.18621334
3	0x3e208491	0.1567557
4	0x3d02191a	0.03176222
5	0x3e88b976	0.26703995
6	0x3dc45f3f	0.09588479
7	0xbe11d7b7	-0.14242445
8	0x3accfe52	0.0015639758
9	0x3daa5a40	0.08317995
10	0x3e8d79eb	0.2763208
11	0x3d971089	0.07376201
12	0xbe51d904	-0.20492941
13	0x3d2e1d62	0.04250849
14	0x3e4e46b6	0.20144162
15	0x3c82bd9f	0.015959559
16	0x3dd3f51b	0.103494845
17	0x3e175286	0.14777574
18	0xbdb4744f	-0.088112466
19	0x3deb015e	0.1147487
20	0xbe452c99	-0.19255294
21	0xbe8ec868	-0.27887273
22	0xbdb379b7	-0.0876345
23	0xbc984b48	-0.018590584
24	0xbd6a04be	-0.05713343
25	0xbd848d31	-0.064722426
26	0x3df58bef	0.11989581
27	0x3e7d5bb1	0.24742009
28	0xbd5fa51c	-0.05460082
29	0x3dedec78	0.116173685
30	0xbd120944	-0.035653368
31	0x3da370b5	0.079804815
32	0xbde71b9b	-0.11284562
33	0x3d857077	0.065155916
34	0xbe69d33d	-0.22834487
35	0x3e1a98ed	0.15097399
36	0xbdad2583	-0.084544204
37	0xbdda829c	-0.10669443
38	0xbb9d8b18	-0.004807841
39	0xbe1204e0	-0.14259672
40	0x3c0aead0	0.008478835
41	0xbd7b051e	-0.061284177
42	0xbd25f7b0	-0.040519416
43	0xbe060682	-0.1308842
44	0x3dccc8bc	0.099992245
45	0xbe9d64ef	-0.3074107
46	0xbe990cfd	-0.29892722
47	0x3d04b4e0	0.03239906
48	0xbb724325	-0.003696629
49	0xbd136ee2	-0.035994418
50	0xbd3eded3	-0.04659922
51	0x3dd9faa0	0.10643506
52	0xbc915982	-0.017742876
53	0x3e6a53ce	0.22883531
54	0x3dce61d3	0.10077252
55	0x3e160be3	0.14652972
56	0x3d7d7b16	0.061884962
57	0x3dba42e2	0.09094788
58	0x3ed8accc	0.42319334
59	0xbd181260	-0.0371269
60	0x3dc04b7a	0.09389396
61	0xbd9cb86f	-0.076523654
62	0xbdd5df0e	-0.10442935
63	0x3c899dc5	0.016798863
64	0x3e132d25	0.1437269
65	0x3d9ec9cd	0.07753334
66	0xbe008671	-0.12551285
67	0x3c3bae72	0.011455165
68	0x3c11bb87	0.008894808
69	0x3d48910d	0.048966456
70	0xbe2e6a2c	-0.17032689
71	0xbdc6cd76	-0.09707157
72	0xbd3ab231	-0.045580093
73	0xbda67e76	-0.08129589
74	0xbdfb392f	-0.12266766
75	0x3ba1bc29	0.0049357605
76	0xbd830df8	-0.06399149
77	0xbda2dab6	-0.07951872
78	0xbe58053a	-0.21095744
79	0xbdce2df5	-0.10067359
80	0x3c3f3cd5	0.011672218
81	0x3d3db71e	0.046317212
82	0x3c943071	0.018089505
83	0xbdb1394e	-0.08653508
84	0xbd81a7df	-0.06330847
85	0x3b17eba7	0.0023181231
86	0x3dab1271	0.08353127
87	0x3d34f1f3	0.044176053
88	0x3db1b8c3	0.086778186
89	0x3e2cb935	0.16867526
90	0xbe1313cd	-0.14363022
91	0xbe44782e	-0.1918647
92	0xbe66dc0f	-0.22544883
93	0xbe15d49f	-0.1463189
94	0x3b91e17d	0.004451929
95	0xbe5beb06	-0.21476373
96	0xbe0347aa	-0.12820306
97	0xbda3714a	-0.079805925
98	0xbe177557	-0.14790855
99	0xbda9933b	-0.08280035
100	0x3e48618d	0.19568463
101	0x3d3c00c3	0.045899164
102	0x3cf2e99a	0.029652406
103	0xbdd5dddb	-0.10442706
104	0xbcabee48	-0.020987645
105	0xba5546e6	-0.000813587
106	0xbd89b0b1	-0.06723154
107	0x3d1f8261	0.0389427
108	0xbd5f40e5	-0.054505248
109	0x3df6b057	0.12045353
110	0x3db79ced	0.08965478
111	0xbc94b49e	-0.018152531
112	0x3e444778	0.19167888
113	0xbde94c31	-0.113914855
114	0xbd8e1ed8	-0.06939477
115	0xbe735a10	-0.23764825
116	0xbe979635	-0.29606786
117	0xbdbe7706	-0.09300046
118	0xbd214dcf	-0.039380845
119	0xbeb573bf	-0.3543987
120	0xbceb9ea6	-0.028762173
121	0xbd32c57e	-0.043645374
122	0xbe9985ba	-0.29984838
123	0x3d5e0234	0.05420132
124	0x3dcea414	0.10089889
125	0xbdcfdbeb	-0.10149368
126	0xbe3bd7f7	-0.18344103
127	0xbe0458ea	-0.12924543
128	0x3da6e605	0.081493415
129	0x3c04aef6	0.008098355
130	0x3db63b0e	0.088979825
131	0x3dce4bd8	0.1007306
132	0x3d890de5	0.06692103
133	0xbe61e24f	-0.22058986
134	0xbe69dd07	-0.22838221
135	0x3dc5afb4	0.09652653
136	0xbe26f74f	-0.16305278
137	0xbe00ded8	-0.12585008
138	0xbd412c04	-0.047161117
139	0xbdc654d0	-0.096841455
140	0x3d224170	0.039613187
141	0xbdecb24c	-0.11557445
142	0x3d844b9f	0.06459736
143	0xbe1980be	-0.14990517
144	0xbd4ba701	-0.049719814
145	0x3e1c9cad	0.15294142
146	0xbdfbd039	-0.12295575
147	0xbe280122	-0.16406682
148	0x3bb2f62b	0.0054614744
149	0x3de9c766	0.11414985
150	0xbc2be2f6	-0.010491123
151	0x3b649d09	0.003488364
152	0xbc468e1a	-0.012118841
153	0xbd6954d0	-0.05696565
154	0x3c9277ee	0.017879453
155	0x3c41a07e	0.0118180495
156	0x3d8e1435	0.06937448
157	0x3e632d2d	0.22185202
158	0x3daff40f	0.08591472
159	0xbda0d2bb	-0.07852694
160	0x3d0d185d	0.034447063
161	0xbd6b9d29	-0.057522926
162	0xbdba8252	-0.09106888
163	0xbe36184a	-0.17782703
164	0x3d7175a7	0.058950093
165	0x3e7b06fe	0.24514386
166	0x3df942fa	0.12170978
167	0xbe389271	-0.18024613
168	0xbd589fff	-0.05288696
169	0x3d82295f	0.06355547
170	0xbdf8a4a4	-0.12140778
171	0xbe6a5f2b	-0.22887866
172	0xbe2cb776	-0.1686686
173	0x3c21f271	0.009884463
174	0x3d2dc81e	0.042427175
175	0x3e0114c3	0.12605576
176	0x3e0c7ce0	0.13719511
177	0xbd4623fa	-0.048374154
178	0xbe05bbf0	-0.13059974
179	0xbdb13b4a	-0.086538866
180	0x3e0ec6ba	0.13942996
181	0xbd3550c5	-0.04426648
182	0xbe29fd9b	-0.16600649
183	0xbe406957	-0.18790184
184	0x3de9a56b	0.11408504
185	0x3d71362d	0.058889557
186	0xbe0f83fe	-0.14015195
187	0xbe1bb6db	-0.15206473
188	0x3dbf0719	0.09327526
189	0x3e108528	0.14113295
190	0xbe931e36	-0.28733987
191	0xbcb03524	-0.021509714
192	0xbdc449d4	-0.09584394
193	0x3d2bcc0b	0.041942637
194	0x3da2a01d	0.079406954
195	0xbe0dd8d7	-0.13852249
196	0xbd887775	-0.066634096
197	0xbc91b4db	-0.017786434
198	0xbd32d91f	-0.043664094
199	0x3d30cf24	0.043166295
200	0x3bb9bd5f	0.0056683267
201	0xbd7c2b90	-0.061564982
202	0xbcb07fc0	-0.021545291
203	0x3d1f7f97	0.03894004
204	0x3c915cba	0.01774441
205	0xbd5fbdbe	-0.05462431
206	0xbd62a129	-0.055329476
207	0x3d3ff71b	0.046866518
208	0x3db70b1c	0.08937666
209	0x3e29ab7f	0.16569327
210	0xbe0d1924	-0.13779122
211	0x3d7ba504	0.061436668
212	0x3e2322cb	0.15931241
213	0xbcb4f236	-0.022088151
214	0xbe313994	-0.1730712
215	0xbe28df14	-0.16491348
216	0xbd9029de	-0.070392355
217	0xbd98a86b	-0.07453998
218	0xbc9eceb5	-0.019385675
219	0xbe10cb9f	-0.14140175
220	0xbd6aee15	-0.05735596
221	0xbe3aeac9	-0.18253626
222	0xbe9fb78b	-0.3119472
223	0xbe332201	-0.1749344
224	0xbd9e38d7	-0.07725685
225	0xbd5dd99e	-0.054162614
226	0xbdd11f93	-0.102111004
227	0xbe0e04cc	-0.13869017
228	0xbdc493d7	-0.09598511
229	0x3cc92fec	0.024558984
230	0xbe1d1c5c	-0.1534285
231	0xbe51fa28	-0.20505583
232	0xbd88551d	-0.06656859
233	0xbc0b6c90	-0.00850977
234	0x3d1eb394	0.038745478
235	0xbe43328a	-0.19062248
236	0x3e64d231	0.22345807
237	0xbc18fcb0	-0.009337589
238	0xbe03448c	-0.12819117
239	0xbd5d846b	-0.05408136
240	0x3cb7835c	0.022401504
241	0xbe2ba927	-0.16763745
242	0xbdd5a633	-0.104320906
243	0x3dc75b3d	0.09734199
244	0x3cb2295b	0.021748235
245	0x3df79ec8	0.12090832
246	0xbe29fe52	-0.16600922
247	0xbe0e5274	-0.13898641
248	0xbdd24183	-0.102664016
249	0x3e84a19a	0.25904542
250	0x3dadf10f	0.08493244
251	0xbd14c35e	-0.03631913
252	0xbdfca4f8	-0.12336153
253	0xbe5f4e15	-0.2180713
254	0xbe3c6754	-0.18398792
255	0x3d93a252	0.072086945

net.8.bias f4 [120]
0	0xbd6b5a9e	-0.057459466
1	0xbe1781db	-0.1479563
2	0xbd4fcf13	-0.05073459
3	0xbd903c4e	-0.07042752
4	0x3d7b04b9	0.0612838
5	0xbce2c036	-0.027679544
6	0xbd809ef1	-0.06280316
7	0x3ceff9e2	0.029293958
8	0xbd4f443a	-0.050602175
9	0xbdc4498b	-0.0958434
10	0x3d74cb27	0.059764054
11	0x3c162f67	0.009166575
12	0x3ddf6187	0.10907274
13	0xbcc1c9a8	-0.023655728
14	0xbdcd572b	-0.100263916
15	0xbd89e3a7	-0.06732874
16	0xbcc3be90	-0.023894578
17	0x3e51d6be	0.20492074
18	0xbc73b8fd	-0.014875648
19	0xbbc837e3	-0.006110178
20	0x3e0ccb0d	0.13749333
21	0xbc4ee328	-0.0126274
22	0xbe3bd23b	-0.18341915
23	0xbdde5fa3	-0.10858085
24	0xbd6c3f7b	-0.057677727
25	0xbd55ed29	-0.052228127
26	0xbdb5e0e5	-0.08880786
27	0xbbf5acd2	-0.0074974084
28	0x3d9b9475	0.07596675
29	0xbd609030	-0.054825008
30	0xbdc9a6e5	-0.09846286
31	0x3c4845f2	0.0122237075
32	0x3c388181	0.011261345
33	0xbd6d760d	-0.05797391
34	0xbd95c52c	-0.07312998
35	0xbdbbe6e0	-0.09174895
36	0xbd54ec06	-0.051982902
37	0x3cc1c8d0	0.023655325
38	0x3d354e30	0.04426402
39	0xbdbce996	-0.092242405
40	0xbd0d01ae	-0.03442543
41	0xbd3c26ed	-0.04593556
42	0xbdbd10ca	-0.09231718
43	0xbdc0b4a0	-0.094094515
44	0x3b57bef6	0.0032920218
45	0xbdd887d1	-0.1057278
46	0x3d2b448b	0.041813415
47	0xbdd3b992	-0.10338129
48	0xbbb00e9e	-0.0053728363
49	0xbcd10b05	-0.02551795
50	0x3cd9aa6d	0.026570523
51	0xbde51467	-0.11185532
52	0xbbaa81af	-0.005203448
53	0xbd2385c3	-0.039922487
54	0xbd8fd94a	-0.070238665
55	0x3c780da5	0.015139972
56	0xbdac4e00	-0.08413315
57	0x3d8344a8	0.064095795
58	0xbd74300c	-0.059616134
59	0xbe167e23	-0.14696555
60	0xbce1367a	-0.027491797
61	0xbda34911	-0.07972921
62	0xbd1134b7	-0.035450663
63	0xbdc3f5fd	-0.09568403
64	0xbd085baa	-0.033290543
65	0x3cf015c3	0.029307252
66	0xbe49f45c	-0.19722122
67	0xbdef28e5	-0.11677722
68	0xbda02b60	-0.07820773
69	0xbd6c606a	-0.057709135
70	0xbd0f7eb7	-0.035032954
71	0xbc5c9001	-0.013462068
72	0xbd61f5a4	-0.0551659
73	0x3c4ee54c	0.012627911
74	0x3dec4bfc	0.1153793
75	0x3d841892	0.06449999
76	0xbde0f388	-0.1098395
77	0xbd73bbe1	-0.059505347
78	0x3bd5c806	0.006524089
79	0x3e04414c	0.12915534
80	0xbabb0a96	-0.0014270123
81	0xbde128b0	-0.10994089
82	0xbd24fb7a	-0.04027889
83	0xbce988c1	-0.028507592
84	0x3cbae59d	0.022814566
85	0xbdf81955	-0.12114207
86	0x3ca09ca1	0.019605936
87	0x3bc8e355	0.0061306157
88	0x3c330a90	0.010927811
89	0xbcfc0e3c	-0.030768506
90	0xbd04d0d1	-0.032425705
91	0xbd0252f1	-0.03181738
92	0xbd84dabd	-0.064870335
93	0xbd3c9c24	-0.046047345
94	0x3df6ac79	0.12044615
95	0xbdb18086	-0.08667092
96	0xbca61f18	-0.020278499
97	0x3d8cbfe2	0.06872536
98	0xbdc80553	-0.097666405
99	0xbce2b148	-0.027672425
100	0xbd2714ec	-0.040791437
101	0xbd2cffc2	-0.042236097
102	0xbd2bec51	-0.041973416
103	0xbd8c1e0c	-0.068416685
104	0xbd5adda5	-0.053434033
105	0xbdf0e05c	-0.11761543
106	0x3cc1a2e7	0.023637248
107	0xbd97ec30	-0.07418096
108	0xbe1f588c	-0.15561122
109	0x3cc56e0b	0.024100324
110	0xbcf2e8a7	-0.029651953
111	0xbc5d6f2d	-0.013515276
112	0x3848efb8	4.790697e-05
113	0xbc98133b	-0.018563857
114	0xbc37b103	-0.0112116365
115	0x39c4527a	0.00037445483
116	0xbdda6c6e	-0.106652126
117	0xbe4926a1	-0.19643642
118	0xbc4cc4bb	-0.012498076
119	0x3ca0161c	0.019541793

net.10.weight f4 [84, 120]
0	0x3d232884	0.03983356
1	0x3d81f0b2	0.06344737
2	0xbe046af9	-0.12931432
3	0xbea5930b	-0.32338747
4	0x3db17665	0.0866516
5	0x3dc87362	0.097876325
6	0x3e22f320	0.15913057
7	0xbdedd4ed	-0.11612878
8	0x3d778596	0.06043013
9	0xbe6b3097	-0.22967754
10	0x3e0479d4	0.12937099
11	0x3cc9dee3	0.024642413
12	0x3dae4b3b	0.08510443
13	0xbdb1b547	-0.08677154
14	0x3bc653bd	0.006052463
15	0x3ddae547	0.106882624
16	0xbc80af9f	-0.015708743
17	0x3ec718c2	0.38886076
18	0x3bb832c5	0.0056212866
19	0xbd74a043	-0.05972315
20	0x3d7c8f35	0.06166001
21	0xbc908e78	-0.01764606
22	0xbead3b1b	-0.33834156
23	0x3d476e7a	0.048689343
24	0x3c8da7ed	0.017291987
25	0xbc1bee91	-0.009517328
26	0x3d84ebf7	0.06490319
27	0x3db9d991	0.090747006
28	0x3dbd0edf	0.09231352
29	0xbcf97da8	-0.030455425
30	0xbda41edb	-0.08013698
31	0x3b7bd500	0.0038426518
32	0xbd970ebf	-0.073758595
33	0x3ebbca65	0.36677852
34	0xbe1ed4c4	-0.15510851
35	0x3dfee258	0.124455154
36	0x3d893e88	0.0670138
37	0xbe7bf244	-0.24604136
38	0x3e7444e1	0.238544
39	0xbe3abb5e	-0.18235537
40	0x3cf5e77e	0.03001761
41	0xbd219416	-0.039447866
42	0x3e580981	0.21097375
43	0xbd93d7cb	-0.072188936
44	0xbcda6585	-0.026659736
45	0xbe6c6353	-0.23084764
46	0xbedafd30	-0.42771292
47	0xbdb68401	-0.089118965
48	0xbc9d4ea0	-0.01920253
49	0x3cc586b4	0.024112083
50	0x3a45a07d	0.0007538868
51	0xbdc514f6	-0.096231386
52	0xbc79ca06	-0.01524592
53	0x3ca033d7	0.01955597
54	0x3db0bbaa	0.08629544
55	0x3d960613	0.07325377
56	0x3e3280e5	0.17431982
57	0x3e8f50e6	0.27991408
58	0x3d1bcb5a	0.038035728
59	0xbe9d4c35	-0.30722204
60	0xbd865096	-0.06558339
61	0x3d1c3787	0.038138893
62	0x3d44d47e	0.04805421
63	0x3e5b7ec2	0.21435073
64	0x3d14e9b5	0.036355693
65	0xbc04ce65	-0.008105849
66	0xbe424db9	-0.18974961
67	0xbd7908ea	-0.060799517
68	0xbe488490	-0.19581819
69	0xbda24b80	-0.07924557
70	0xbd6ab8dd	-0.057305206
71	0xbe3096f3	-0.17245083
72	0xbc1420a0	-0.0090409815
73	0x3d19f1c1	0.03758407
74	0x3d8f63fa	0.07001491
75	0x3dd0612c	0.10174784
76	0xbd36e650	-0.044653237
77	0xbd91cc44	-0.07119039
78	0xbce2abd1	-0.02766982
79	0x3e129891	0.14316012
80	0x3e591549	0.21199526
81	0xbe33c51a	-0.17555657
82	0xbd0b26f0	-0.03397268
83	0x3d70b5c2	0.058767088
84	0x3e1285ce	0.14308855
85	0x3dd3325d	0.103123404
86	0xbe8688fd	-0.2627639
87	0x3deaae32	0.11459006
88	0x3bf9bfe0	0.0076217502
89	0xbda74842	-0.08168079
90	0xbe9a482d	-0.3013319
91	0xbd88db78	-0.06682485
92	0xbdf4667d	-0.119336106
93	0x3dc9b445	0.09848837
94	0xbdc1bb8c	-0.094596
95	0x3d08b254	0.033373192
96	0xbd9df0d2	-0.077119485
97	0xbec1a184	-0.3781854
98	0x3d2163b4	0.039401725
99	0xbd5bb559	-0.053639743
100	0x3e14544e	0.14485285
101	0xbdb77364	-0.08957556
102	0xbe1f1bc1	-0.15537931
103	0x3e4755ee	0.19466373
104	0xbce07cd1	-0.027403267
105	0x3c474155	0.012161572
106	0x3d84b0e1	0.064790495
107	0x3dab25a8	0.08356792
108	0xbcbe29ec	-0.02321335
109	0xbf1a9b76	-0.60393465
110	0xbdf7e252	-0.12103714
111	0x3ccd869c	0.0250886
112	0x3da03688	0.07822901
113	0x3d898ba0	0.067160845
114	0xbe0aeb01	-0.1356621
115	0x3e299ae1	0.16562988
116	0xbb50e1a5	-0.0031872776
117	0xbef25ade	-0.4733495
118	0xbda45cc8	-0.08025509
119	0xbdbcac86	-0.09212594
120	0x3c6e7521	0.014554293
121	0xbd6d3f22	-0.057921536
122	0xbc668abe	-0.014071165
123	0xbdc25f43	-0.09490826
124	0x3ce98a4f	0.028508333
125	0x3c505a0e	0.012716783
126	0xbd5d9699	-0.0540987
127	0x3e2ef537	0.1708573
128	0x3d54e43e	0.05197548
129	0xbd6e5a13	-0.05819137
130	0xbe5f9218	-0.21833074
131	0x3d9bd336	0.07608645
132	0xbe4f4af2	-0.20243433
133	0x3d9774e1	0.0739534
134	0xbe0c5aa4	-0.13706452
135	0x3e1c0de4	0.15239674
136	0xbcf51668	-0.02991791
137	0xbe43843d	-0.19093414
138	0x3ca2de9f	0.019881545
139	0x3d924951	0.0714289
140	0xbdc54aee	-0.09633432
141	0xbc813602	-0.015772823
142	0x3da019a5	0.07817391
143	0x3e185d11	0.14879252
144	0x3daa8aee	0.0832728
145	0x3d8eb32f	0.0696777
146	0x3d0cdc16	0.034389578
147	0xbd7f400c	-0.06231694
148	0xbe286a2c	-0.16446751
149	0x3c20a3b8	0.009804659
150	0x3ecea8f0	0.40363264
151	0x3c4840fe	0.012222527
152	0xbea6b8b6	-0.32562798
153	0xbc74d508	-0.014943369
154	0x3dd48280	0.103764534
155	0x3df3ab83	0.11897948
156	0x3b366932	0.0027833697
157	0xbddc3939	-0.10753102
158	0x3d2dbc58	0.042415947
159	0x3d83bec7	0.06432872
160	0x3d8741eb	0.0660437
161	0x3db4ae79	0.088223405
162	0x3d3d8485	0.04626896
163	0xbd5cd45c	-0.05391346
164	0x39eabca5	0.0004477251
165	0x3e67be9f	0.2263131
166	0xbdd052f1	-0.1017207
167	0x3e8cf2bb	0.2752894
168	0xbd20e7d0	-0.039283574
169	0x3bdbf6f3	0.0067127883
170	0x3d7b73a0	0.061389565
171	0xbbacbf89	-0.005271856
172	0xbcda111b	-0.026619485
173	0x3e0391bf	0.12848566
174	0xbdfabee6	-0.12243442
175	0xbdb4d686	-0.088299796
176	0xbe990749	-0.2988837
177	0xbe8e7f27	-0.27831385
178	0xbd8f22e1	-0.069890745
179	0x3ee03564	0.43790734
180	0xbd9fce21	-0.07802988
181	0x3cf9dfe1	0.030502262
182	0x3cd43261	0.025902929
183	0xbe319898	-0.17343366
184	0xbe07479c	-0.1321091
185	0xbd75af6b	-0.059981745
186	0x3bc3b1e0	0.005972132
187	0xbdb588ad	-0.088639595
188	0xbda6c02b	-0.08142122
189	0x3e038cc2	0.12846664
190	0x3d8f896b	0.07008632
191	0x3d88a834	0.06672707
192	0x3d911aae	0.07085167
193	0xbdde6a83	-0.10860159
194	0xbe514125	-0.20435007
195	0x3d6eb096	0.058273874
196	0x3e64f645	0.2235957
197	0x3c8d828f	0.01727417
198	0xbd8989cc	-0.06715736
199	0xbe84ba81	-0.2592354
200	0x3ca13950	0.019680649
201	0xbdae9a5d	-0.08525536
202	0x3dd7ce59	0.105374046
203	0x3d96bdb0	0.07360399
204	0xbdc5387a	-0.09629913
205	0x3db3e349	0.087835856
206	0x3caadc5f	0.020857034
207	0xbea2dca6	-0.31808966
208	0x3d4cbe80	0.049986362
209	0x3c6d10b6	0.014469316
210	0xbdafc90a	-0.08583267
211	0xbcbf55aa	-0.023356277
212	0xbe9dbe73	-0.30809364
213	0x3e967a0d	0.29389992
214	0xbe954955	-0.2915751
215	0x3db99967	0.09062462
216	0xbcd2a832	-0.025714967
217	0xbe9577dc	-0.29193008
218	0x3e195667	0.14974366
219	0x3d9b76ae	0.07590996
220	0x3e00a41d	0.12562604
221	0xbd94c7bf	-0.07264661
222	0x3e8f694b	0.2801002
223	0xbcb90963	-0.022587484
224	0x3daede16	0.08538453
225	0x3af37974	0.0018575625
226	0x3c6e0077	0.014526478
227	0x3d2a9e26	0.04165473
228	0x3e1c6697	0.1527351
229	0xbe5705f5	-0.20998366
230	0xbcf5b5f0	-0.029993981
231	0xbd5e3bfc	-0.054256424
232	0xbdd0f702	-0.10203363
233	0xbe1bb333	-0.15205078
234	0x3e694ca3	0.22783141
235	0x3dc54b47	0.09633499
236	0x3df89da4	0.121394426
237	0x3e1b427c	0.1516208
238	0xbd843042	-0.06454517
239	0x3df7cd62	0.120997205
240	0x3cfec4ef	0.031099765
241	0xbe3bb968	-0.18332446
242	0xbd666ce9	-0.05625621
243	0x3db313e5	0.08744029
244	0xbe9083c8	-0.2822554
245	0x3cc4c43b	0.024019351
246	0x3da8e193	0.0824615
247	0xbb62c461	-0.0034601914
248	0x3c1caded	0.0095629515
249	0x3e38d2bb	0.18049137
250	0xbe0f67e3	-0.14004473
251	0xbdd628d2	-0.104570046
252	0xbeb0e6a4	-0.34550965
253	0xbd7abf85	-0.061217804
254	0x3d56fba4	0.052486077
255	0xbb9c2f30	-0.0047663674

net.10.bias f4 [84]
0	0x3e61119e	0.21979377
1	0xbd28d940	-0.04122281
2	0xbda8b0b2	-0.08236827
3	0x3cb3edb3	0.02196393
4	0xbcffa0dc	-0.031204633
5	0xbde46676	-0.111523554
6	0xba9c7975	-0.0011938052
7	0xbd60f420	-0.054920316
8	0x3d80423d	0.06262634
9	0x3e47eac2	0.19523147
10	0xbdf13517	-0.11777704
11	0xbcd9c32e	-0.026582327
12	0xbde97447	-0.11399131
13	0x3cb0bea2	0.021575276
14	0xbcfa192d	-0.030529583
15	0xbe2e3799	-0.17013396
16	0xbe08dc3a	-0.1336526
17	0xbe53ca44	-0.20682627
18	0xbe2d40eb	-0.16919295
19	0xbdb5da8b	-0.088795744
20	0x3e2deded	0.16985293
21	0x3e08a87c	0.13345522
22	0xbdb4dc0c	-0.08831033
23	0xbe04c75a	-0.12966672
24	0x3d3b19b1	0.045678798
25	0xbd450970	-0.048104703
26	0x3cb10616	0.021609347
27	0xbc6a7792	-0.014310734
28	0xbcdeb839	-0.027187454
29	0xbdf9f2c6	-0.122045085
30	0xbe9a138a	-0.30093032
31	0xbe526658	-0.20546854
32	0x3e0862a9	0.13318886
33	0xbdcfe53a	-0.10151143
34	0xbe42029b	-0.18946306
35	0x3eb4d4c2	0.3531857
36	0xbdd4be47	-0.10387855
37	0x3db917c9	0.0903774
38	0xbe58b143	-0.2116137
39	0x3d6c71e4	0.057725802
40	0x3d864563	0.06556203
41	0xbdb81139	-0.0898766
42	0xbdc8a3cc	-0.09796867
43	0x3db3cb52	0.08779015
44	0xbdb445c8	-0.08802372
45	0xbdd8f4ec	-0.1059359
46	0x3a377713	0.00069986394
47	0xbcf730f1	-0.030174704
48	0x3d42fd4f	0.047604855
49	0x3b8694ab	0.004107078
50	0x3e34ca0e	0.17655203
51	0xbd8ba7e2	-0.068191305
52	0xbce140c7	-0.027496709
53	0xbe74205c	-0.23840469
54	0xbe27cf10	-0.16387582
55	0xbe4400ba	-0.19140902
56	0xbdeea3d6	-0.11652343
57	0xbdb9a929	-0.09065468
58	0xbdf2b9ec	-0.11851868
59	0xbc8e726d	-0.017388547
60	0xbcea5263	-0.028603738
61	0xbbbcb792	-0.005759188
62	0x39b03969	0.0003361211
63	0xbe8d1a75	-0.27559248
64	0xbdb1857e	-0.0866804
65	0xbd3d6a45	-0.046243925
66	0xba295e51	-0.00064608926
67	0xbcaf281b	-0.021381428
68	0xbdac504f	-0.08413755
69	0xbe2998a8	-0.1656214
70	0xbe02006b	-0.12695472
71	0xbde4ff8a	-0.11181553
72	0x3d6dedcd	0.058088113
73	0x3e35b23e	0.17743775
74	0x3dfa32a7	0.122166924
75	0x3dee1402	0.1162491
76	0xbe33bd13	-0.17552595
77	0xbdaa15d7	-0.08304947
78	0xbd1a05c7	-0.037603166
79	0xbc0aeaea	-0.008478859
80	0xbd7d83db	-0.061893325
81	0xbcf2cdb8	-0.02963911
82	0xbd9a7eab	-0.07543691
83	0xbdbbea2b	-0.09175523

net.12.weight f4 [10, 84]
0	0xbdef0907	-0.11671644
1	0xbec8bf4d	-0.3920845
2	0xbcc1760e	-0.023615863
3	0x3dd16e38	0.10226101
4	0x3dc6eb97	0.09712904
5	0xbd1b9d90	-0.03799206
6	0xbec82364	-0.390895
7	0xbd39f231	-0.045396987
8	0xbe0616a3	-0.13094573
9	0xbe563122	-0.2091718
10	0x3d445945	0.047936697
11	0xbe6666df	-0.2250018
12	0xbdfb648e	-0.12275039
13	0x3e42f372	0.1903818
14	0xbe3a6bd0	-0.1820519
15	0x3d418060	0.04724157
16	0x3d594ced	0.053051878
17	0x3d485e9e	0.04891836
18	0xbdf2d23f	-0.118565075
19	0x3d15a464	0.03653373
20	0xbeed2a49	-0.46321324
21	0x3d8ad7ad	0.06779418
22	0xbc15f3c9	-0.009152361
23	0xbde683f1	-0.112556346
24	0x3e3130be	0.1730375
25	0xbe8ef56f	-0.27921626
26	0xbe0b4fdd	-0.13604684
27	0x3dbccd91	0.09218896
28	0x3dfcf977	0.12352269
29	0xbcd97a73	-0.026547646
30	0xbe81af6a	-0.25329143
31	0xbd8b9482	-0.06815435
32	0x3d1d916d	0.038468767
33	0xbe057d8a	-0.1303617
34	0xbd37eeab	-0.044905346
35	0xbe4d18c6	-0.20028982
36	0xbe2da015	-0.16955598
37	0xbd2b8530	-0.041875064
38	0xbde13b84	-0.1099768
39	0xbeed996e	-0.4640612
40	0xbda8ffb8	-0.082518995
41	0x3df268dd	0.11836407
42	0xbe8eee85	-0.2791635
43	0xbe782bdc	-0.24235481
44	0x3d0addb0	0.033902824
45	0xbe2ce324	-0.16883522
46	0xbca0d58c	-0.019633077
47	0xbee4e280	-0.44704056
48	0x3dd83af4	0.105581194
49	0x3da38bb5	0.079856314
50	0x3dcbbdf0	0.09948337
51	0xbd8f48e3	-0.06996324
52	0x3e444ae5	0.19169195
53	0xbea11a62	-0.3146544
54	0xbe19c6f1	-0.15017296
55	0x3e277617	0.16353641
56	0x3e85461d	0.26030055
57	0x3da5aad9	0.08089227
58	0x3d4bf7b7	0.049796786
59	0x3e24f338	0.16108406
60	0xbe741b72	-0.23838595
61	0xbcb68dfc	-0.0222845
62	0xbe8fa86e	-0.2805819
63	0x3d73d7b7	0.059531894
64	0xbeb62ee0	-0.35582638
65	0x3d81c0f0	0.06335628
66	0x3e42bec2	0.19018081
67	0xbebb167e	-0.36540598
68	0xbeb75633	-0.35807952
69	0xbe7328d4	-0.23746043
70	0x3d92f1f7	0.071750574
71	0xbeb1a70a	-0.34697753
72	0xbcb67485	-0.022272358
73	0xbe426efa	-0.18987647
74	0xbede8f94	-0.43468916
75	0xbedd8114	-0.4326254
76	0x3d944590	0.072398305
77	0xbc506ea1	-0.0127216885
78	0xbdabd9c3	-0.08391144
79	0xbdcf396a	-0.10118373
80	0xbe805787	-0.25066778
81	0xbe48920b	-0.19586961
82	0xbed7c930	-0.4214568
83	0x3e3196d0	0.17342687
84	0x3cb6d9de	0.022320684
85	0xbd34715e	-0.044053428
86	0xbe2828ba	-0.16421786
87	0x3e3a88fb	0.18216316
88	0x3cfbf1ac	0.030754887
89	0xbed56bfd	-0.4168395
90	0x3df732c6	0.12070231
91	0xbe30a0d9	-0.17248859
92	0xbe004e00	-0.12529755
93	0xbe89a86b	-0.26886305
94	0x3da0eec7	0.07858043
95	0x3de7eb81	0.11324216
96	0xbe79b58d	-0.24385662
97	0x3e2217fd	0.15829463
98	0x3e0e7b8b	0.13914315
99	0xbdaf7182	-0.08566572
100	0xbd78c2bd	-0.060732592
101	0xbe9b0aab	-0.30281577
102	0xbd0673d2	-0.0328253
103	0xbddf22a4	-0.10895279
104	0x3e034876	0.1282061
105	0xbe3c0545	-0.18361385
106	0xbdf67a71	-0.120350726
107	0xbecaf8e0	-0.39643002
108	0x3e0ad253	0.13556795
109	0xbe820933	-0.25397643
110	0xbeb752a2	-0.3580523
111	0xbe7bcd38	-0.24590003
112	0xbe3b0983	-0.18265347
113	0xbd422c82	-0.047405727
114	0x3e3b6885	0.1830159
115	0xbe57c84b	-0.210725
116	0xbca819d7	-0.020520134
117	0x3d33d578	0.04390475
118	0xbe044e38	-0.12920463
119	0xbe4fe67b	-0.20302765
120	0x3e2ad001	0.1668091
121	0x3db1f15b	0.08688613
122	0x3e48cae8	0.19608653
123	0xbdb067cc	-0.08613548
124	0xbf01e506	-0.5074009
125	0xbab61d23	-0.0013894181
126	0xbe0ef9d4	-0.1396249
127	0xbe93adaa	-0.28843433
128	0x3e46ac72	0.1940172
129	0x3db55abc	0.08855197
130	0xbea36545	-0.319132
131	0xbe64a848	-0.22329819
132	0x3d08105b	0.033218723
133	0xbe5d2a76	-0.21598229
134	0x3dce5c05	0.10076145
135	0xbe57a851	-0.21060301
136	0x3e6e21e3	0.23255114
137	0x3d987ea8	0.07446033
138	0xbe1ec597	-0.15505062
139	0xbe62ce40	-0.2214899
140	0xbdc78f1c	-0.09744093
141	0xbe8b2949	-0.27179936
142	0xbea563db	-0.32302746
143	0xbe62062f	-0.22072671
144	0x3cfa2b92	0.030538354
145	0xbd96a4d1	-0.07355655
146	0x3dc1b00d	0.09457407
147	0xbdc4a6f5	-0.09602157
148	0xbeb9b414	-0.362702
149	0xbd37d987	-0.044885185
150	0xbdf6c0e8	-0.12048513
151	0xbe323931	-0.1740463
152	0x3d52f326	0.051501416
153	0x3e1d69cd	0.15372391
154	0xbe7fe01a	-0.24987832
155	0x3d99abfc	0.075035065
156	0xbeb6aa8d	-0.35676995
157	0xbabc4b2b	-0.0014365664
158	0x3d98c825	0.074600495
159	0xbd20f2f4	-0.0392942
160	0xbebe4681	-0.37163165
161	0xbda11b4c	-0.078665346
162	0x3d5be5b5	0.053685863
163	0xbec16091	-0.37768987
164	0x3de874b2	0.11350383
165	0xbe5873d5	-0.21137936
166	0x3d7899f6	0.060693704
167	0xbe6c50c0	-0.23077679
168	0xbe2d41dd	-0.16919656
169	0x3db6e10a	0.089296415
170	0xbe6a466f	-0.22878431
171	0xbe45b5e1	-0.19307663
172	0xbea9e992	-0.33186013
173	0xbef4cc0c	-0.47811925
174	0xbe893aa2	-0.26802546
175	0x3c8a18ce	0.01685753
176	0x3caf14e7	0.021372272
177	0xbe67973e	-0.22616288
178	0xbdc99f23	-0.09844806
179	0xbcec68db	-0.028858593
180	0xbe23f8a6	-0.1601282
181	0xbe09b0c8	-0.13446343
182	0x3e11f989	0.14255346
183	0xbe632ea8	-0.22185767
184	0xbd1fa9bf	-0.038980242
185	0xbd8f8669	-0.070080586
186	0x3d11d329	0.03560177
187	0xbe64ff0b	-0.22362916
188	0xbe7270d8	-0.23675859
189	0x3dda8823	0.10670497
190	0x3dd9aae4	0.10628298
191	0xbe6e7063	-0.2328506
192	0xbe806424	-0.250764
193	0x3d75fe0d	0.060056735
194	0x3ded5ddb	0.11590167
195	0x3dee5b1e	0.11638473
196	0x3caf1495	0.021372119
197	0x3c90e3d1	0.017686756
198	0x3e472057	0.1944593
199	0x3c70bcf3	0.0146934865
200	0xbe523533	-0.20528106
201	0xbdbc370d	-0.091901876
202	0x3bc986c4	0.0061500985
203	0xbee37129	-0.44422272
204	0x3db80c8e	0.089867696
205	0xbd07e16f	-0.033173975
206	0xbe09d03c	-0.13458341
207	0xbe4e03e6	-0.20118675
208	0xbe11b901	-0.1423073
209	0x3c2baa53	0.01047762
210	0xbe176e47	-0.14788161
211	0x3dab1d9b	0.08355256
212	0x3d72ff21	0.05932534
213	0x3d85ca74	0.065327555
214	0xbebc4eb0	-0.36778784
215	0xbe9e813f	-0.30957982
216	0x3e48a4bb	0.1959409
217	0xbe86e0c9	-0.26343372
218	0xbe9bfa0f	-0.30464217
219	0xbe512678	-0.20424831
220	0xbe9f6505	-0.3113176
221	0xbe1c171a	-0.15243188
222	0x3db38a3e	0.08766602
223	0xbb9c2fcf	-0.0047664414
224	0xbe5b4f21	-0.21416904
225	0xbe7c7769	-0.24654926
226	0x3d50faae	0.051020317
227	0x3aa1885f	0.0012323967
228	0xbcd9c954	-0.026585259
229	0xbe26f482	-0.1630421
230	0xbeb9ce3b	-0.36290154
231	0x3dcf91a3	0.101352
232	0x3a97f385	0.001159296
233	0xbea4459b	-0.32084355
234	0xbed68809	-0.41900662
235	0x3d222915	0.03958996
236	0xbe4d6bfa	-0.20060721
237	0x3dafa8ec	0.08577141
238	0x3d65659d	0.05600511
239	0xbead81ee	-0.3388819
240	0xbd828b4a	-0.063742235
241	0x3cb22b66	0.02174921
242	0xbdc590b3	-0.0964674
243	0xbd969ffb	-0.073547326
244	0xbeb310fa	-0.3497389
245	0x3c5aac52	0.013346748
246	0xbdd612a8	-0.10452777
247	0x3de8d8e8	0.113694966
248	0x3e6cf1e8	0.23139155
249	0xbe3f409f	-0.18676995
250	0xbd209850	-0.039207757
251	0xbe251fee	-0.16125461
252	0xbe102d78	-0.14079845
253	0x3def8044	0.116943866
254	0xbe26d957	-0.16293846
255	0xbe9410e3	-0.28919134

net.12.bias f4 [10]
0	0x3c35537b	0.011067267
1	0x3db73819	0.08946247
2	0xbe316957	-0.1732534
3	0x3e1fc002	0.15600589
4	0x3dde7a89	0.108632155
5	0xbd545d62	-0.05184687
6	0xbd895315	-0.067053
7	0xbc229ea3	-0.009925517
8	0x3ea7ecf7	0.32797977
9	0x3ca1513d	0.019692058
